developpement/MNIST/weights/mnist_net.pth (torch, 184095 bytes, 10 tensors)

conv1.weight f4 [8, 1, 5, 5]
000000 f4 ee fd bd ad 8f a6 3d f9 7a 2d be aa 98 0c bd
       -0.12399092 0.08132873 -0.16941442 -0.03432528
000010 60 f1 06 be 63 4f dd 3d fb 2e 1f be 7d ea eb bd
       -0.13178015 0.108061574 -0.15545265 -0.115193345
000020 0e be 12 be 3d e5 1a bd 9f cd 96 bc dd 36 54 bd
       -0.14330313 -0.037816275 -0.018408595 -0.051810134
000030 d8 8c 3e be 79 c2 d8 bc 22 a3 d4 bd 82 b7 a5 3d
       -0.18608415 -0.02645992 -0.103826776 0.08091642
000040 30 99 30 3e 5d f1 09 3d 97 0c 01 be 30 c2 f8 bc
       0.17245936 0.033677448 -0.12602459 -0.030366033
000050 e8 df 2e 3d f0 b3 53 bd 28 a7 06 bd 00 e6 67 3d
       0.042694002 -0.051685274 -0.032874256 0.05661583
000060 00 ec af bd 5e cf c4 bd d2 b2 ab 3d 23 c8 d0 3d
       -0.08589935 -0.09609865 0.08383717 0.10194423
000070 5c e1 94 bd d0 a4 4a bd 3b 4b db 3d 40 6b 44 be
       -0.072695464 -0.049473584 0.107077084 -0.19181538
000080 8e 6c ce 3c 1d ac 1e 3e 2a a0 0a 3e 7e 1e 1c 3e
       0.025198247 0.15495344 0.1353766 0.15246007
000090 25 ef 14 3e 2b 84 c8 bc 39 f2 08 be 6d 43 ab bb
       0.14544351 -0.024477085 -0.1337365 -0.0052265436
0000a0 48 ac 09 3c 10 12 f6 bc 61 0e 9e bd 7b 5c a0 3d
       0.008402891 -0.03003791 -0.07717586 0.07830139
0000b0 40 6f 71 3d 6f 1f 45 3e 30 dc 31 be d7 60 46 3e
       0.058943987 0.19250272 -0.17369151 0.19372879
0000c0 48 cf df bd 72 86 b3 3d e0 ca af bd 43 a4 38 be
       -0.10928208 0.08765878 -0.08583617 -0.18031411
0000d0 72 89 40 3e 67 d3 02 be 37 13 5b 3e 11 3a 0b 3d
       0.18802431 -0.12775956 0.21394049 0.033990923
0000e0 39 d6 ab 3c 25 d1 22 be 9e d5 78 3d 2d 16 04 3e
       0.020976173 -0.15900095 0.060750596 0.12899084
0000f0 a2 af 7a 3c 33 1f f2 3d 24 c0 29 be 6d 1b 55 bd
       0.015300663 0.11822357 -0.16577202 -0.05202811
000100 2c a2 af 3c af 75 b6 bd 1d 4a 38 be c6 5d a6 bd
       0.021439634 -0.08909165 -0.17997022 -0.081233546
000110 cd 31 c3 3c 0f cb 8c 3d f5 ee b1 3b b3 2e a5 bd
       0.023827458 0.06874668 0.005430097 -0.08065548
000120 98 ec 2b 3d 9c 94 e9 3d 28 da 01 be 42 ca f2 bd
       0.04197368 0.11405298 -0.12680876 -0.11854984
000130 fd ce 07 3e 3f 0b 0f 3d 98 a5 b8 bd 35 d3 44 3c
       0.13262554 0.034922834 -0.090159595 0.012013246
000140 e6 f0 bc 39 45 e6 06 3e e1 38 33 be e8 8a 89 bc
       0.00036037638 0.13173778 -0.17502166 -0.016789868
000150 28 6d 95 bc 78 37 26 3e 0d 8d 06 bc f7 73 04 be
       -0.018240526 0.16232097 -0.00821234 -0.12934862
000160 3f 2e 9b 3d 72 45 ab 3c f9 53 ed 3d 07 86 3b 3e
       0.0757718 0.020907138 0.11588282 0.18312846
000170 bf 34 50 3e 77 ba 1c 3d b7 37 da 3d 31 0b 2b be
       0.20332621 0.038263764 0.10655158 -0.16703488
000180 6e 3e f1 3d 60 c6 73 bd fc 12 8b bd 25 9f 7d 3d
       0.11779486 -0.059515357 -0.0679073 0.06191935
000190 09 07 f8 3d c9 bb 51 3e 09 a6 4e 3e f3 b1 11 bd
       0.12110717 0.2048179 0.20180525 -0.035570096
0001a0 99 49 46 3e 7f a0 80 bd ff 58 99 bd 1f ce 44 be
       0.19364013 -0.06280612 -0.07487678 -0.19219254
0001b0 02 6b 48 3d 2f 98 1c be 59 e2 4a 3e 59 84 78 3d
       0.048930176 -0.15292428 0.19812907 0.06067309
0001c0 50 68 6d bd ae 70 74 bd 8f 25 09 3e 7e d0 27 3e
       -0.05796081 -0.059677772 0.13393234 0.16388127
0001d0 e5 e0 a6 3d ad 22 40 be 77 59 74 3c c8 99 23 3e
       0.08148364 -0.18763228 0.014913908 0.15976632
0001e0 2f 92 e3 3d 0d 5b 6d 3d 40 b9 32 3e 40 90 a1 3d
       0.11111867 0.05794816 0.1745348 0.07888842
0001f0 33 ea 19 be b0 ef 80 3d 34 cc f5 3d aa 7e e6 3c
       -0.15030746 0.06295717 0.12001839 0.02813657
000200 bc 95 09 3e fa 27 d6 3c cc 94 06 be 53 94 53 3d
       0.13436025 0.02614211 -0.13142699 0.051655125
000210 b8 14 2a be 2c 8d 25 be 67 38 f6 bd a4 32 c1 bd
       -0.16609466 -0.16167134 -0.12022477 -0.09433487
000220 00 0e 83 3d 5b 9e 95 bd 78 ba 42 3d 09 2f 94 3d
       0.06399155 -0.073055945 0.04754111 0.07235534
000230 77 95 31 be be 2b d5 3d 80 7b fe bd 05 f9 36 bd
       -0.17342173 0.10408734 -0.124258995 -0.044671077
000240 91 cc 13 3d 57 58 ee bd d7 5e 7c bd 20 c3 61 3d
       0.03608376 -0.11637943 -0.061613884 0.055117726
000250 24 a4 61 3d f0 66 08 be 7e c4 cc bc 02 ce 7c bd
       0.055088177 -0.13320518 -0.024996039 -0.0617199
000260 a5 ad 4e bd 70 35 04 be f6 d1 36 3d 41 73 25 be
       -0.05045857 -0.1291101 0.044633828 -0.16157247
000270 2a 07 33 39 37 37 f2 bd e8 27 c5 bd bb 9e e8 3d
       0.00017073439 -0.11826938 -0.09626752 0.113584004
000280 19 4b 5f bd fd 12 4d 3e 8e b7 ae 3d cb ac 80 3d
       -0.054514978 0.20026775 0.08531104 0.06282958
000290 02 83 bd 3b 98 db e5 3d 28 38 19 3d b4 03 df 3d
       0.0057834396 0.11223525 0.03740707 0.10889378
0002a0 43 77 20 be 27 b3 fd 3c 4b 39 10 be 5a 2c 64 bd
       -0.15670495 0.030969216 -0.14084356 -0.05570636
0002b0 dd 76 37 3d 84 d8 9c bd 12 c6 2e be 77 ad e6 3d
       0.04479109 -0.076584846 -0.17067745 0.112635545
0002c0 56 6f a7 bd 72 4c 02 3e 1b 79 23 be f4 7f 38 be
       -0.081755325 0.12724474 -0.15964167 -0.1801756
0002d0 f2 b6 27 3e 6c cd c7 bd 45 f2 16 3e 37 6e 3d 3e
       0.16378382 -0.09755978 0.14740856 0.18499075
0002e0 d3 8f 82 bd 44 d8 28 bd 4b b9 15 3e a2 3e 1a 3d
       -0.063750885 -0.041221872 0.14621465 0.037657388
0002f0 fb d6 10 be 54 b5 30 be 0a 96 1b be 1f e5 0c bd
       -0.14144509 -0.17256671 -0.15193954 -0.034398194
000300 c6 94 18 be 70 d3 26 be 36 93 e2 3d ca 6f 28 be
       -0.14900503 -0.16291595 0.110632345 -0.16448894
000310 5b 4a 2c 3e 06 03 a6 bd eb 32 d2 bd 4c 52 50 3b
       0.1682524 -0.081060454 -0.10263618 0.0031787334

conv1.bias f4 [8]
000000 1b 74 d5 bd bb cf b7 3d 34 1e ed bc d0 18 fb bd
       -0.10422536 0.08975168 -0.028945066 -0.12260592
000010 26 5c 78 3d 15 12 13 be b6 c6 e8 bd f9 5e c8 bd
       0.060634755 -0.14362366 -0.11366026 -0.097837396

conv2.weight f4 [16, 8, 5, 5]
000000 21 8d 83 3c 90 26 43 3d d0 ca 80 bd 7c 0c 2b bd
       0.016058506 0.047644198 -0.062886834 -0.041759953
000010 22 2d 49 3c 45 1e b9 bc 6a a9 82 bd 51 5d 70 3d
       0.012278827 -0.022597441 -0.063799694 0.058682743
000020 d6 dd 30 3d 0e 6a 91 3d 24 b4 83 bd 64 41 bc bc
       0.04318031 0.071003065 -0.064308435 -0.0229804
000030 bd dc 81 bd 6c 1b 15 bd f5 29 fe 3b ed ce 54 3d
       -0.063409306 -0.036403105 0.0077564665 0.051955152
000040 80 47 38 3d e2 4c 7f bd 9c a9 87 3d 91 d5 66 bd
       0.044990063 -0.06232918 0.06624147 -0.056356017
000050 f2 db 69 bd b4 02 84 bc 59 9e ba 3c 95 6f 31 3c
       -0.05709452 -0.01611457 0.022780584 0.010829826
000060 9d aa 1a 3d 6b 12 2a 3d 7a 00 73 3d c0 08 3b bd
       0.037760366 0.04152147 0.059326626 -0.04566264
000070 f1 07 79 3c de 75 04 3d 67 09 c1 bc aa 6a 0a 3d
       0.015199647 0.03233897 -0.023564054 0.03379313
000080 89 cd 82 3d 63 f6 68 bd 43 4d 1f 3b f2 2d d5 bc
       0.06386859 -0.056875598 0.0024307526 -0.026022885
000090 c4 cd 77 bb 96 7b 66 3d 0c 94 7b bc 58 de 47 bd
       -0.0037811855 0.056270204 -0.015355121 -0.048796028
0000a0 4a 04 38 3d 97 9e e6 bc ec 6c 66 3c 94 1f 34 bd
       0.044925965 -0.028151793 0.014064055 -0.043975428
0000b0 f6 f6 8d bc e9 6e 48 3d 0e fd 83 3c 2a 85 02 3d
       -0.017329674 0.048933897 0.016111877 0.031865276
0000c0 f0 c3 16 bc 05 5f 64 bd f8 8e bd bc ba db 10 b8
       -0.009201989 -0.05575468 -0.023139462 -3.453691e-05
0000d0 2e 91 a1 bc 84 47 4b bd 2a e6 ea 3c 41 17 4f 3c
       -0.019722547 -0.04962875 0.028674204 0.0126398215
0000e0 6a 08 26 bd 60 d1 ca bb e5 4b 3a bc 15 10 84 bd
       -0.040535368 -0.00618951 -0.011370634 -0.0644838
0000f0 cf aa 46 3d 61 70 81 3c 99 22 7f bd cb d5 0a bd
       0.04850274 0.015800657 -0.062288854 -0.033895295
000100 2f cb 92 bc bf 36 86 3d 4a 80 97 3c 9d 04 1f bc
       -0.017919151 0.06553411 0.01849379 -0.00970569
000110 a6 61 65 3d 6c b8 bf bc fa 81 7e 3d f8 f2 e4 bc
       0.056001328 -0.023403369 0.062135674 -0.027947888
000120 ff 40 96 3c 19 5a 93 38 2a d7 87 bc ae a9 a0 3c
       0.01834154 7.026288e-05 -0.01658209 0.01961216
000130 5d ae b4 3b de 89 54 bd 58 40 72 bd f8 b3 46 bc
       0.00551395 -0.051889293 -0.059143394 -0.012127869
000140 78 ec 08 bc 24 bf 39 bd 3a 9c 74 3d dc cc 2f 3d
       -0.00835716 -0.0453483 0.0597193 0.04291998
000150 06 60 5f 3c 5e 0c cf bc 86 7b b0 3c a8 96 94 3d
       0.013633734 -0.025274452 0.021543276 0.07255298
000160 89 e0 02 bc d8 49 09 3c a3 ba 02 bd 89 25 78 bc
       -0.007988104 0.008379422 -0.031916272 -0.015145668
000170 26 d0 bf 3c aa 5f 9c bc 5f 4f eb bc ce 36 88 bc
       0.023414683 -0.019088585 -0.02872437 -0.016627695
000180 10 55 9c bc 99 30 89 3b 03 f6 7c bd ca a0 32 bc
       -0.01908353 0.0041867015 -0.061758053 -0.010902593
000190 d3 35 83 3d ce 9a 15 3d 6f 54 8c 3b c7 d3 0d bc
       0.064067505 0.036524586 0.004282526 -0.008656449
0001a0 a2 ac fc 3c f5 bf 59 bd 96 f2 84 bd 29 4a bd 3c
       0.030844036 -0.05316158 -0.06491582 0.023106651
0001b0 3b 68 80 bd 05 4a 08 bd 64 93 05 3d 36 b3 e4 bc
       -0.062698804 -0.033273716 0.032611266 -0.027917486
0001c0 a6 72 b1 bc 32 c5 e1 bc 2f 83 2c bd 0a 0b 37 bc
       -0.021661114 -0.02755985 -0.042117294 -0.0111720655
0001d0 4a 3e 82 3d 71 7b a9 bc 0a 96 0c 3d 58 50 4e 3d
       0.06359537 -0.020688744 0.034322776 0.05036959
0001e0 f5 bc eb 3b ca 7a 83 3b 37 3a a4 3b 06 4e 1f 3d
       0.0071941563 0.0040124403 0.0050118226 0.03889277
0001f0 8e 8f fc bc 30 16 5f 3d 1e be 31 3d b2 8f 48 3d
       -0.030830171 0.05446452 0.0433942 0.048965164
000200 f8 0a e4 bb d8 ad 36 bd 9e 20 52 bd 32 13 3f 3d
       -0.0069593154 -0.044599384 -0.051300637 0.046649165
000210 aa ef fb bc e8 c9 c2 3c 4b 16 6e bd 41 16 dc bc
       -0.03075393 0.023777917 -0.05812673 -0.02686608
000220 18 19 11 bd 8b 1e 69 bd f2 c9 54 3d 2d 8b 58 3d
       -0.035424322 -0.056913894 0.051950403 0.052867103
000230 b0 73 df bc d4 bd e9 bb f2 07 57 3d a9 d6 4e bb
       -0.027276844 -0.007133225 0.05249781 -0.0031561053
000240 5b f8 8a bb 3b c9 02 3d 06 f7 50 3d 34 79 43 3c
       -0.004241032 0.03193019 0.05101683 0.011930753
000250 cd 1d 8c 3d 32 cf 37 bd 0a b5 b2 bc 3b 03 f6 bc
       0.068416215 -0.04487533 -0.021814842 -0.030030837
000260 80 0f 5a 3d 42 37 28 3c 23 0a 69 3b 4e 6a 98 bc
       0.05323744 0.010267081 0.003555902 -0.018605378
000270 12 bc 84 bb 75 1e e9 bb f4 0b 4c 3d d9 1a e4 bc
       -0.00405074 -0.0071142265 0.049816087 -0.027844833
000280 a0 44 06 bd da 4b 3e 3c 54 9f 79 3b 84 bb ed bb
       -0.03278029 0.011614764 0.0038089352 -0.0072550196
000290 27 99 0e bd 67 a5 78 bd 68 f3 1d 3d 9a d2 5e 3d
       -0.034814026 -0.060704615 0.03856221 0.054400064
0002a0 17 ef ea 3c c8 88 9c ba 44 50 ad bb eb c1 11 bd
       0.02867846 -0.001194262 -0.0052891094 -0.035585325
0002b0 b9 c4 6b bd 94 1e 02 3d 16 e8 67 bd 4b 30 76 bd
       -0.057560656 0.031767443 -0.05661782 -0.06010465
0002c0 ba f6 f7 3c 16 60 ab bc 8f 28 e0 bc d1 24 a9 3c
       0.030269016 -0.02091984 -0.02736309 0.020647438
0002d0 86 cb 4a 3c 95 0e 03 3d e7 b2 6f bd c6 d6 07 b9
       0.012377625 0.03199633 -0.058520224 -0.00012954613
0002e0 5e 4b 0f bd 19 cd 1f bd fa ee 81 3c 4b b1 55 bd
       -0.034983985 -0.039013956 0.015861023 -0.052171033
0002f0 ef a9 e6 3c c8 36 67 bd 8f 84 11 3d 30 63 0b bc
       0.028157203 -0.056448728 0.03552681 -0.008507535
000300 3f f0 0b 3d 40 0f 10 3d 99 38 79 3d 99 7c 87 3b
       0.034164663 0.035170794 0.06084499 0.0041347262
000310 ee e2 9a 3c 13 9c 0d 3d 6e 26 46 3c 0e 58 82 3d
       0.018907037 0.034572672 0.012094123 0.06364451
000320 4c f4 7b 3d 12 d4 8c 3d 8e 36 52 3d 6a e8 8d bd
       0.061512277 0.06876387 0.05132156 -0.06929095
000330 7d ae 30 bc 88 7a 56 3d 47 95 51 bd ad 54 71 3b
       -0.010783789 0.05236295 -0.051167753 0.0036824152
000340 8c 48 8a 3d 0f c7 13 3d 1f 44 68 bd 38 0a 40 bd
       0.067521185 0.03607851 -0.05670559 -0.046884745
000350 36 30 59 3d a7 a8 77 bd d9 be 82 bd f9 d7 99 3d
       0.053024493 -0.060463574 -0.063840576 0.07511897
000360 13 0f 68 bd f6 59 4f 3d 58 23 90 bc 67 85 1a 3d
       -0.056655 0.050622903 -0.017594978 0.03772488
000370 45 a0 7a 3d 93 d9 68 3b 46 28 68 bd da 5c 4c bd
       0.061188 0.0035530075 -0.056679033 -0.049893238
000380 fb 0b d0 bc 43 0c 3f 3d 93 ee 6b bd cb f9 b0 bb
       -0.025396338 0.046642553 -0.05760057 -0.0054008714
000390 60 6b 2b 3d 8a aa 3d bd 08 05 2e bd f1 04 fa 3c
       0.041850448 -0.046305217 -0.042485267 0.030519934
0003a0 d1 1e 4e 3d 86 24 64 3d 00 4c 97 bc b5 80 e3 bc
       0.050322358 0.055698894 -0.018468857 -0.027771333
0003b0 c0 26 62 3d 69 d3 f3 bb 4d c1 8e bd f2 2c 78 bd
       0.055212736 -0.0074409735 -0.06970463 -0.06058974
0003c0 e2 4d f1 bb cd 18 5e bd 01 d9 a3 bc 1d b7 e9 3c
       -0.0073640207 -0.05422287 -0.020000936 0.028529698
0003d0 10 e4 05 3d c1 c6 c8 bc 56 b9 3b 3d 7a a3 01 bd
       0.0326882 -0.024508836 0.045831047 -0.031650044
0003e0 7e 89 9b 3c 82 6b 60 3d 17 f0 82 3d 70 e7 8a 3d
       0.01898646 0.054790027 0.0639345 0.067824244
0003f0 b9 6b ca 3c c7 3c 3b bd 61 e5 d0 3c f2 49 77 bd
       0.02470957 -0.04571226 0.025500001 -0.060373254

conv2.bias f4 [16]
000000 10 50 01 3d 65 04 aa 3c 8a 4b 29 3d 68 35 2b bd
       0.031570494 0.020754049 0.041331805 -0.04179898
000010 d1 53 e4 3c 22 cc 49 3c 8c ae 1e bc b1 20 36 3d
       0.027871998 0.012316735 -0.00968517 0.04446477
000020 3e 20 73 3d 25 68 df bb 5c 42 42 bd 4c 26 c1 bc
       0.05935692 -0.006817835 -0.047426566 -0.023577832
000030 e4 34 86 3d e6 ee 83 bd 5a 10 6b bc a8 07 00 3d
       0.06553057 -0.06442051 -0.01434716 0.0312573

fc1.weight f4 [128, 256]
000000 b6 1e c9 3c 89 89 08 3d f4 e6 60 3c 72 59 4c 3d
       0.024550777 0.03333429 0.0137269385 0.04988999
000010 10 5c d7 3c b8 0e fa bb d9 51 f4 3c 0e 3a 68 3d
       0.026289016 -0.007631149 0.029824184 0.05669599
000020 2a fa 79 3d ce 73 86 3c 19 c2 5a bd fa b6 e5 3c
       0.06102959 0.016412642 -0.053407762 0.028041352
000030 0e d4 a7 bc 18 7c 25 bd 3b bd 81 bc 50 92 29 3d
       -0.020486858 -0.04040155 -0.015837302 0.0413993
000040 f4 0a 8b 3c 3e 14 6c bc d4 b1 e4 3b 39 4d 73 3c
       0.016972996 -0.014409123 0.0069792066 0.014849954
000050 dd 1d 21 3d 73 58 55 bd 06 cd f8 bc 9e e4 01 3d
       0.03933512 -0.052086305 -0.0303712 0.031712167
000060 c4 6c 00 bd d2 04 eb 3c 1e 7e a3 3c a2 bb 96 3c
       -0.031353727 0.028688822 0.019957598 0.018400017
000070 9e fa 2c 3d 5d fb 20 bb 59 94 a5 bc bc 00 61 bc
       0.042231195 -0.0024563887 -0.02021234 -0.013733085
000080 59 78 79 bd 29 70 66 3d a4 13 ab bb a7 1c ed 3b
       -0.060905788 0.056259308 -0.005220847 0.0072360816
000090 03 cd 03 ba 90 57 31 bd 25 df d7 bc be d4 3d 3d
       -0.00050278025 -0.043296397 -0.02635152 0.046345465
0000a0 9f fa 4f bd 50 7c c7 3c 19 61 f8 3c eb ed 19 bc
       -0.05077612 0.024351269 0.030319737 -0.009395103
0000b0 e3 d2 af bc b7 02 17 bd 33 38 26 3d a1 db 1a bb
       -0.021462863 -0.036867823 0.04058094 -0.0023629444
0000c0 78 a1 41 3d 3a 17 2d bd ab 2b 09 ba c4 54 8f bb
       0.04727313 -0.04225848 -0.0005232642 -0.0043741185
0000d0 88 f8 cf bc a1 d6 90 3c 17 37 32 bd 7f 9d 64 3d
       -0.025387064 0.017680468 -0.04350957 0.055814262
0000e0 26 09 34 bd e5 6d b4 3c 2d 17 2a bd e8 92 c3 3c
       -0.043954037 0.022025058 -0.04152601 0.023873761
0000f0 0e ae 59 3d d1 f3 aa 3c c7 d3 fe 3c e8 57 61 3d
       0.053144507 0.020868214 0.031106843 0.055015475
000100 93 56 61 3d 4f c6 50 3d b2 72 49 3c db 01 22 bd
       0.055014204 0.05097037 0.012295412 -0.03955255
000110 af e2 27 3d 15 c4 9f bc 11 7a 79 bd fa 59 56 3c
       0.040987667 -0.019502679 -0.060907427 0.0130829755
000120 05 45 11 bc a2 f4 49 bd a6 ac 31 3d ea 1b 18 3d
       -0.008866553 -0.049305566 0.04337754 0.037135996
000130 84 24 21 bd 6b 30 7d bd 02 ab 62 bd a7 ee 24 3d
       -0.039341465 -0.061813753 -0.055338867 0.04026666
000140 27 cc 67 3d d1 a1 36 3b d9 fc 41 3d 51 cc 26 bd
       0.05659118 0.0027867446 0.047360275 -0.040722195
000150 61 71 2e bc 88 43 e1 bc d2 99 b7 bc 9e 7a 7a bc
       -0.010647149 -0.027498022 -0.022412214 -0.015288023
000160 de 74 35 3d e7 a5 4b bd 08 92 7f bd 36 0b d5 bb
       0.044300906 -0.049718764 -0.062395126 -0.0065015806
000170 04 7a 45 bd 15 ec bd ba c4 73 a3 bc 37 ad 71 3d
       -0.048212066 -0.0014489914 -0.019952662 0.05900308
000180 b0 8c ef bc 52 dc 7f bd e4 c7 6a 3d 70 a8 80 3c
       -0.02924189 -0.062465973 0.057319537 0.015705317
000190 3e d2 73 3d 5f 04 95 3b a2 0b 24 3c 9b 7a 0a 3d
       0.059526674 0.00454764 0.010012539 0.033808332
0001a0 4d b7 83 bd 92 88 9d bb 92 16 27 bd b5 1b 7f bd
       -0.06431446 -0.00480754 -0.04079301 -0.062282283
0001b0 c8 95 09 3d 23 64 88 3b f4 f2 d4 3c a0 d4 6e bd
       0.03359011 0.004162328 0.025994755 -0.058308244
0001c0 77 a4 67 bc d2 26 9f 3c 66 35 28 3d ea e7 e9 bc
       -0.014138333 0.01942769 0.04106655 -0.028552968
0001d0 c1 0b 63 bc d5 26 8a 3b 84 ad 8a bb 8a 6b 0f 3c
       -0.013857783 0.004216055 -0.0042321105 0.008753667
0001e0 65 49 93 3b 36 74 2e 3d 9b dd 29 3d f7 56 53 bd
       0.0044948333 0.042591296 0.041471105 -0.051596608
0001f0 03 c0 0c 3d ac 95 46 bc e6 02 15 3c 76 34 ac bc
       0.034362804 -0.0121206455 0.009094929 -0.02102111
000200 9c 17 38 3d e8 0c f0 3c bf fb 3f bd b7 7d 9b bc
       0.04494439 0.02930303 -0.046870943 -0.018980844
000210 31 b2 ec 3c 8e 09 6b 3b d9 0b 38 3a 1f 23 66 3d
       0.028893562 0.003586385 0.00070208084 0.056185838
000220 31 7b a5 3c 33 f9 3b 3d c0 38 a0 3b d1 ac 97 bc
       0.020200344 0.04589195 0.0048895776 -0.018515022
000230 0c ac 56 bd d5 6a e4 bc bc f5 28 bd 43 68 50 bd
       -0.05241017 -0.027882973 -0.041249976 -0.05088068
000240 6d 6d cc 3c fd 4b d3 3b fb 00 16 3d 5c 1c 88 3c
       0.024954522 0.0064482675 0.03662203 0.016615085
000250 35 c2 48 bd 9a 5e 59 bd 6d 50 58 3c 3d 02 59 3d
       -0.049013335 -0.053068735 0.013202769 0.05298065
000260 18 3a f7 3c c7 34 c6 bc 47 fe 57 3d ef a2 ea bc
       0.030179068 -0.024195088 0.052732732 -0.028642146
000270 bf 85 08 3d c5 e6 47 3d 92 d1 2b bd e8 0a e8 3c
       0.033330675 0.048804063 -0.04194791 0.028325513
000280 ac d2 cf 3c b7 fe fd 3c 49 be 35 3c 67 f3 6a 3d
       0.02536901 0.031005247 0.011092731 0.057361033
000290 36 18 57 3d dd 72 0a bd 4e 4e 1e 3d d8 8b 47 bc
       0.052513324 -0.03380095 0.038648896 -0.012179337
0002a0 99 38 57 bd 76 4a 27 3d a9 47 36 3d 6b f5 bd bb
       -0.05254421 0.040842496 0.044501934 -0.0057970784
0002b0 ca 08 2d 3d 3f 01 8e bc 92 8c 4f 3c 68 51 06 3d
       0.04224471 -0.017334579 0.012667792 0.03279248
0002c0 3f e8 dd 3c f4 74 47 3d 7a 97 7f 3c 5c 76 34 3c
       0.027088283 0.04869552 0.01560008 0.011014547
0002d0 d6 19 a1 3c 29 27 f8 bc 62 76 a0 bc b0 6a 72 3d
       0.01966564 -0.03029211 -0.0195877 0.059183776
0002e0 bd 25 9f 3c af 5a 4e 3d 3a 8d 98 3c db 71 c6 bc
       0.019427175 0.05037945 0.01862203 -0.024224212
0002f0 cf 3b 4a 3c 8d ad 21 3d 91 37 39 bc 19 b9 6e bd
       0.012343361 0.03947215 -0.011304752 -0.05828199
000300 d8 cf 4e 3d 9e cb 98 3c 63 2e 2b bd 7a 04 11 bd
       0.050491184 0.01865178 -0.041792285 -0.03540466
000310 71 5a 3c bd 9c 84 8d bb b5 62 39 bd bb bf bf bc
       -0.04598469 -0.004318787 -0.04526015 -0.023406854
000320 76 00 1b 3d 67 b3 31 bd e8 5f 25 bd be f5 5c bb
       0.037842236 -0.043383982 -0.040374666 -0.003371581
000330 43 55 f4 bc 07 f5 1d 3d c4 cf 4c bd c7 26 d1 3c
       -0.029825812 0.038563754 -0.05000283 0.025531186
000340 61 a0 e1 3c 9e 75 7d 3d 5d 14 2c 3d 0d 1f b7 3c
       0.027542295 0.061879747 0.042011607 0.022353673
000350 25 6c 65 bb f5 6b f3 bc 02 ac 2d 3c b1 e7 84 bc
       -0.0035007086 -0.029714564 0.010600092 -0.01622376
000360 0d 5f 5c bd f2 5e 0a bd 21 3d 42 3d e8 e8 6b bc
       -0.053801585 -0.033781953 0.04742158 -0.014398791
000370 5d be 4a bc 70 ff f2 bb 05 3f 4e bd f7 31 e4 bc
       -0.012374488 -0.0074157044 -0.05035307 -0.027855856
000380 8c 58 c8 3c 1a fd 52 3d 15 a4 cd bb 4f d2 51 bc
       0.024456285 0.051510908 -0.0062756636 -0.012806489
000390 58 1e d0 3c 81 55 94 3a 85 09 4b bc 63 3c 83 bd
       0.025405094 0.0011316986 -0.012392406 -0.06408002
0003a0 0c 57 53 3c c3 b8 ab bb ec 80 03 3d 5b a5 53 3d
       0.012899172 -0.005240531 0.03210537 0.051671367
0003b0 11 12 78 3c 6e 93 6c 3c d3 95 2c 3d 79 0e ca 3c
       0.015141026 0.014439447 0.04213507 0.024665104
0003c0 41 c0 45 3d 7e 74 44 3d ab 71 f6 bc 2d 6a 69 bd
       0.04827905 0.047962658 -0.030083498 -0.056986023
0003d0 64 4b 82 3b 5c 28 5f 3d 2f da 31 3d dc 44 32 3d
       0.0039762724 0.05448185 0.043420967 0.0435227
0003e0 34 54 70 3d 2d db 0c 3c 06 07 44 3d 8a 27 9e bb
       0.058674052 0.008597177 0.04785826 -0.004826491
0003f0 7b 52 4e 3d c6 26 12 bd 6e 5b c0 bb 45 e3 6c 3c
       0.05037163 -0.03568151 -0.0058702743 0.014458482

fc1.bias f4 [128]
000000 ed ae 35 bc 7e 7a a5 bc d2 3b 4d bd c8 63 05 bd
       -0.011089069 -0.02020001 -0.050105877 -0.032565862
000010 aa c0 84 3d 45 7d 1d bd 08 ba 82 3b ae 0e 9e 3c
       0.0648206 -0.038449544 0.003989462 0.01929411
000020 cd 36 8e 3c 69 a4 a9 3c 07 70 2e bd bf 6b 68 bd
       0.017360115 0.02070828 -0.042587306 -0.05674338
000030 f9 7a ea 3b 26 7f b7 bb f1 01 a4 3c 7a 74 44 bd
       0.0071557728 -0.005599874 0.020020457 -0.047962643
000040 b5 53 01 3b d3 bf 2f 3d eb 0b 7d 3d a6 48 f0 3b
       0.0019733731 0.042907547 0.061778944 0.007332879
000050 f9 21 75 bc b6 f0 a7 3c 23 4e 5b 3d 61 b6 46 3d
       -0.014961713 0.020500522 0.053541314 0.048513774
000060 f8 92 8b 3c b1 75 b0 bc 7a 70 72 3d eb 9d 39 bc
       0.017037854 -0.021540495 0.059189297 -0.0113291545
000070 1f e4 38 3d 7c a5 12 3d b8 45 8e 3c 95 41 1d 3c
       0.04513943 0.03580235 0.017367229 0.0095981555
000080 18 a0 c1 bb 27 73 b2 3c e7 9b 82 bb c4 84 84 bc
       -0.0059089772 0.021783425 -0.00398587 -0.016176589
000090 b5 ee 71 3d 8c d3 ad 3c 3d 34 98 bc 98 79 43 bd
       0.05906554 0.021219037 -0.018579597 -0.047723383
0000a0 af 39 9d bc c4 10 ea 3c ba 45 1b bc fc 73 b4 3c
       -0.019192545 0.028572448 -0.009477073 0.022027962
0000b0 a8 63 91 bc 17 35 5b 3d ff 7e 5d bd e6 1b 50 bd
       -0.017747715 0.053517427 -0.05407619 -0.050807856
0000c0 67 a4 a6 3b fb ea 3a bc 2a bf 64 3c 43 67 3b bd
       0.0050855163 -0.011408563 0.013961593 -0.045752775
0000d0 25 53 66 bd 45 6a 49 bd ac e6 8f bc da f2 31 3d
       -0.056231637 -0.049173612 -0.017566048 0.043444492
0000e0 f7 60 72 bc 02 d2 a9 3c 85 de f1 bb 34 56 c3 bc
       -0.014793626 0.020730022 -0.0073812627 -0.023844816
0000f0 d3 17 66 3d 0c 99 fd 3c 6c e7 ac 3a 57 d3 a0 3c
       0.056175064 0.030956767 0.0013191528 0.019632025
000100 9e d5 a5 bc b5 37 81 3d 98 6a 51 bd a5 de 12 bd
       -0.020243462 0.063094534 -0.051127046 -0.03585686
000110 77 5d 35 3d f3 a9 0c 3d bd 94 13 3b f5 a1 04 3d
       0.04427859 0.034341764 0.0022519075 0.032381017
000120 2a ab 8f bc 54 8c c1 bc 2b 65 f3 3c 77 91 76 3d
       -0.017537672 -0.023626484 0.029711327 0.06019732
000130 03 a3 a2 3b 23 75 3a bd f7 4c fd bb 2b ab 43 bd
       0.00496328 -0.045521867 -0.007730122 -0.04777066
000140 5f 52 0e bb a9 68 d8 3c bc 2a 78 bd 93 52 1d 3d
       -0.0021716577 0.026417093 -0.06058763 0.038408827
000150 17 63 e8 bc eb 37 3a bd 98 41 52 bc 6b 79 9c bc
       -0.028367562 -0.045463484 -0.012833022 -0.019100865
000160 89 c9 f0 bb ef 11 5f bd 4f c3 36 3d 52 81 e0 3c
       -0.0073482436 -0.054460462 0.044619855 0.027405415
000170 27 da 6b bd e1 12 1a 3d 37 d5 81 3d c6 0d 79 3d
       -0.057581093 0.03761566 0.06339496 0.06080415
000180 18 98 18 bc 34 22 9f bc 0f 8e 65 3d 98 23 63 3d
       -0.009313606 -0.019425489 0.05604368 0.055453867
000190 51 69 e1 bc 63 d5 2b 3d 6c 8e 21 3d bf 82 19 bc
       -0.02751604 0.04195155 0.039442465 -0.009369551
0001a0 f3 d4 70 3d 23 96 42 3c df d3 d4 3c 4d 6f 24 3d
       0.058796834 0.011876616 0.025979934 0.040145207
0001b0 69 0f 4d bd af ee c0 bc bf 60 06 bd bc 54 db 3c
       -0.050063524 -0.023551313 -0.032807108 0.026773803
0001c0 d0 d0 7b ba 71 55 bd 3c 7b ac a6 bb 8f f7 58 bd
       -0.00096060056 0.02311203 -0.0050864792 -0.052970465
0001d0 0b 0a 00 bd 51 ce 0e bd 18 6b ba 3c 26 6a 41 bd
       -0.031259578 -0.034864727 0.022756144 -0.04722037
0001e0 5c 6a ed bc e7 90 d9 3c 4b 75 05 3c 43 1f 28 bd
       -0.02898138 0.026558353 0.008145641 -0.04104544
0001f0 67 ef 1e bd bf 3b 08 3a a2 00 5f bd 73 78 54 bd
       -0.03880253 0.0005196891 -0.054443963 -0.05187268

fc2.weight f4 [64, 128]
000000 73 e8 d1 bb c3 00 e7 bc 6e de bf bc dc 27 81 bd
       -0.006405884 -0.028198605 -0.023421492 -0.06306431
000010 22 c7 48 bc 5c 3b f6 3c 61 db 59 bd ed 95 09 3d
       -0.012254508 0.030057602 -0.05318773 0.033590246
000020 27 fc ff bc 04 f6 5f 3d e2 5c 98 3d 07 aa 7c bd
       -0.031248165 0.05467798 0.07439591 -0.06168559
000030 9d c2 8f 3d 6b cf 7a bd 07 3b 6d 3d d9 43 05 3c
       0.070195414 -0.061232965 0.05791762 0.008133852
000040 9b 6e 56 3d 5a 6c 29 3d a1 c8 74 bd 22 8c 5e bc
       0.052351575 0.041363098 -0.059761647 -0.013583215
000050 ac 8e 86 3c c3 e8 16 3c 5e aa c6 3b 7e 67 ab bd
       0.016425453 0.009210768 0.00606279 -0.08369349
000060 1a 67 bd 3b 66 7d 03 3c 2a 13 d6 bb 90 27 c0 39
       0.005780113 0.008025503 -0.0065330463 0.0003665057
000070 2a ee e6 3c 9b df 3c 3d 23 8c 8b bd 45 f3 e7 3c
       0.028189737 0.046111684 -0.06813838 0.028314242
000080 3d 9d 5a bd 82 ba 40 bd 3b 87 0d bd e5 2b 0e bd
       -0.05337261 -0.047052868 -0.034552794 -0.03470983
000090 54 6d 9c bb 95 0a 82 bd 3d 0d 40 3d bf 24 57 3d
       -0.004773775 -0.063496746 0.046887625 0.05252528
0000a0 9e 22 99 bd 08 71 84 bd b7 5e 13 bb 42 c8 a3 ba
       -0.07477306 -0.064668715 -0.0022486874 -0.0012495595
0000b0 0b b4 72 bc 1d ba 3e bd 43 67 6a bd 1d 2c a1 3d
       -0.014813433 -0.04656421 -0.057227384 0.07869742
0000c0 42 1b 0c bd e9 94 40 3d 0e 2f ad bd 3f b3 33 3d
       -0.034205683 0.04701701 -0.084562406 0.043872114
0000d0 0a f5 42 bd b2 ed dc bc 8c 83 b1 3d 44 38 c6 bb
       -0.04759697 -0.02696881 0.08667669 -0.006049188
0000e0 48 d7 b3 3d fe 13 ae bd 29 b1 6c 3c 37 f8 a0 3d
       0.08781296 -0.08499907 0.014446535 0.07859843
0000f0 25 05 a6 3d 2f cb 56 bc 9f 18 9c bd d6 4c ad 3d
       0.0810645 -0.013109966 -0.076218836 0.08461921
000100 a7 83 a3 bd df 73 17 bd 73 bd 5b bd 63 fc 46 bd
       -0.07984095 -0.036975738 -0.05364747 -0.04858054
000110 c7 34 ab bd 0e 0c a7 3d 39 fe a1 3d 62 78 ae 3c
       -0.08359676 0.08156596 0.07909817 0.021297637
000120 4f e6 8f bb 9a b6 80 bd 58 d9 50 3d ad 64 aa bd
       -0.0043914686 -0.062848285 0.050988525 -0.08319984
000130 0e 7e 2d bd ec b0 76 3d e5 fc 64 3d 9e 00 26 bd
       -0.042356543 0.06022732 0.05590524 -0.040527932
000140 e1 73 57 3d a9 6d 8c bc ee e0 77 3d 3c de 8a 39
       0.052600745 -0.017142134 0.060517244 0.0002648699
000150 72 c6 9d bd dd 1f 9d bd c0 a4 6d 3d 89 29 84 bd
       -0.07703866 -0.07672093 0.058018446 -0.06453235
000160 d4 99 56 bc 45 59 63 bd 4f a4 2f bd 0e 95 87 3d
       -0.013098199 -0.055505056 -0.042881306 0.06620227
000170 85 04 4f 3d 82 d1 fa 3c cd d4 53 3d 78 9e 1a 3b
       0.05054142 0.03061748 0.051716615 0.002359299
000180 88 a0 27 bd 00 32 19 3d 68 7f 87 bd 7d 0d 83 bb
       -0.04092458 0.0374012 -0.06616098 -0.0039994107
000190 ac 7d 64 bd 45 a9 92 3c 59 54 e9 3c 2f b7 93 bd
       -0.055783913 0.01790298 0.028482603 -0.07212674
0001a0 ee 97 42 3d 2b aa f7 3c f9 c6 e9 3c ec 72 3a 3c
       0.047508173 0.03023251 0.02853726 0.011379939
0001b0 da 15 80 bc 0a 71 59 3d ff 63 c3 3c 8b 9d 25 bd
       -0.01563542 0.053086318 0.023851393 -0.040433448
0001c0 08 8d 82 3d 6d 22 91 3d 5a 3f 45 3c 58 66 aa 3b
       0.06374556 0.07086644 0.01203903 0.0052001886
0001d0 00 c4 56 3d 90 32 88 3d 31 23 60 3c c9 0d 9a bd
       0.052433014 0.06650269 0.013680265 -0.075221606
0001e0 1f b7 ca 3c 41 92 7c bd 8c af c3 bc 1c d6 d5 3b
       0.024745522 -0.061662916 -0.023887418 0.006525768
0001f0 50 82 a9 3c e7 19 41 3c 2a e9 ca bc 38 1a a0 bd
       0.02069202 0.011785961 -0.024769384 -0.07817501
000200 30 c6 29 3d 4b 8a 06 bd 50 c5 9f 3b 80 f7 a6 3d
       0.041448772 -0.03284673 0.0048758164 0.08152676
000210 42 69 c3 3c 26 b5 2c bd c5 92 80 3d a5 91 93 3c
       0.023853902 -0.042164944 0.06277994 0.018013785
000220 f7 bd 93 bd da 0f 76 3d ad 0a 3a bd 15 db fe 3c
       -0.07213967 0.06007371 -0.045420337 0.031110326
000230 ea 80 8f bd 8b 5e 17 3c 62 c1 0f 3d bd ce 93 bd
       -0.0700701 0.009238849 0.035096534 -0.072171666
000240 61 91 9a 3d c6 4d 94 3d e8 18 1a bc 4f 72 03 bd
       0.0754726 0.072413966 -0.009405352 -0.032091435
000250 63 4d 4c bb 71 7a 9b 3d 76 67 84 bd 3d 4f 5b bd
       -0.0031174056 0.07591713 -0.06465046 -0.053542364
000260 ad 66 96 3c 6f 88 5e bd 22 fb 0e 3d 9a 09 a7 3d
       0.018359507 -0.054329332 0.034907468 0.08156128
000270 5f 1c 3e bd af 64 7a bc 66 13 c3 bc 3a 8b a9 bd
       -0.046413776 -0.015282794 -0.02381296 -0.082785085
000280 e4 15 29 3d e9 23 2d bd 41 a4 57 3d 93 60 46 bc
       0.041280642 -0.042270575 0.05264688 -0.012107986
000290 ff 7a 6a 3d c2 d3 4f bd 25 1b f4 bc 5e 61 a0 bd
       0.057246204 -0.050739057 -0.0297981 -0.07831071
0002a0 3c ae 37 bc 41 d6 a8 bb e6 e5 85 bd 77 a5 c2 3d
       -0.011210974 -0.005152494 -0.0653799 0.09504216
0002b0 b0 b9 56 3c 71 20 97 bd 54 84 a0 3d e1 ae 3b bd
       0.013105795 -0.073792346 0.078377396 -0.045821074
0002c0 1e 1a 17 3c bc 5e 99 3d 5f 83 93 bd f7 9f 1f bb
       0.009222535 0.07488772 -0.072027914 -0.002435682
0002d0 12 f4 2f 3d 90 19 61 3c f7 89 84 3d 74 e1 43 bd
       0.042957373 0.013739005 0.06471627 -0.04782243
0002e0 ba ac ad 3b ad 74 45 3d f3 65 e3 bc 37 fe ae bd
       0.0053001316 0.048206974 -0.027758574 -0.085445814
0002f0 b6 56 87 bd 24 31 92 3d 7f 21 02 3d 38 7c cf 3b
       -0.06608336 0.07138279 0.031770226 0.0063319467
000300 bf 34 ac 3d f5 0b c1 3c d8 40 02 3c c1 9d 97 3d
       0.08408498 0.023565272 0.00795003 0.07403136
000310 e5 91 82 bc 01 2d 0d 3d 84 b2 4b 3c 98 b1 da 3a
       -0.015938709 0.034466747 0.012432698 0.0016685007
000320 fb be 55 3d 2d 57 9a bd 39 af be 3d 20 a7 7d bc
       0.052184086 -0.07536159 0.09310765 -0.01548174
000330 14 28 5d bd 75 05 8f bd 8c 7f 45 bd d7 c3 fc 3c
       -0.0539933 -0.06983463 -0.04821734 0.030855102
000340 d7 23 7b bd 36 b1 f9 bc 06 e9 10 3d 6b 13 9b 3d
       -0.061313476 -0.030480009 0.03537848 0.07572063
000350 e9 e2 55 3a 12 a9 81 3d 57 03 25 bc e6 2c 11 bd
       0.00081591174 0.06331076 -0.010071597 -0.03544321
000360 b1 d8 8b bd b0 bb 08 3d 17 1f 81 bc 5b ab ca bc
       -0.0682844 0.033382118 -0.015761895 -0.024739912
000370 b5 36 1d bd 24 2d 3f 3d df 87 1d bc 0c 9e 80 3d
       -0.03838225 0.04667391 -0.009614914 0.06280145
000380 04 ac 81 3c 9d bb 5f bd 1e bb 91 3d a1 22 fd bb
       0.015829094 -0.05462228 0.07115768 -0.0077250754
000390 07 6c 0a bb ca 9a 85 3d 70 f2 d9 ba ce 4d 8c 3d
       -0.0021121518 0.06523664 -0.0016628038 0.068507776
0003a0 64 45 38 3d 95 6c 25 3d 6d 6e a3 bd 6a a7 6b bd
       0.04498805 0.040386755 -0.079800464 -0.057532705
0003b0 f1 4e 88 3d b5 39 a8 bd 33 58 30 3d e5 2d a5 3d
       0.06655682 -0.08214132 0.043052863 0.08065394
0003c0 27 14 4d bd f7 a8 98 3d bc 55 22 3c 70 9d 08 bd
       -0.050068047 0.074541025 0.009908136 -0.03335327
0003d0 5f 35 59 bc 5e ab 15 bd c4 ee f4 bc 69 20 a6 3b
       -0.013257354 -0.03654038 -0.029899009 0.0050697816
0003e0 d9 e5 d4 bc 42 aa 22 bd fe 2b 3b 3b 78 2a 9d bd
       -0.025988506 -0.03971315 0.0028560157 -0.07674116
0003f0 93 e2 4f bd 48 91 98 bd f5 39 21 3d 89 72 ca 3c
       -0.050753187 -0.07449585 0.039361913 0.024712818

fc2.bias f4 [64]
000000 1b c4 de bb f4 21 9d 3d a5 b1 8c bc 5f 97 16 3d
       -0.00679828 0.07672492 -0.017174551 0.036765452
000010 b1 0d 80 3c 6d 33 c0 3d 27 0a 50 3c c5 69 a5 3d
       0.015631529 0.09384809 0.012697733 0.080768146
000020 a7 a0 18 bd b6 5f 3a bd d5 c9 05 3d 2c 58 63 3d
       -0.037262585 -0.045501433 0.032663185 0.05550401
000030 fe 3b cf 3d 7b 87 29 bd 0b cd 8b bd 9f fc c8 bb
       0.101188645 -0.04138897 -0.06826218 -0.0061336304
000040 af 62 8e bd a4 8e 93 3d f2 f7 6d 3d 38 b7 a2 bd
       -0.06952416 0.07204941 0.058097787 -0.079451025
000050 6d b0 c3 3a ff 8d 5f 3d 9e cf 3b 3d 62 39 c6 3c
       0.0014929898 0.054578777 0.045852296 0.024197284
000060 d2 85 97 3d 5c 66 25 bd aa b9 6e 3d ed 31 2b bd
       0.07398571 -0.04038082 0.05828253 -0.04179566
000070 34 76 a5 bd 53 cf 76 3d 9a 81 6c 3c f0 4e b8 3b
       -0.08079186 0.060256314 0.014435196 0.0056246445
000080 1f a4 9a bd 29 fe a0 bd 0c b9 b7 3d 7a 58 09 bd
       -0.07550835 -0.07860977 0.08970842 -0.033531643
000090 7d 75 2d 3d 9a 77 ac bc 25 5a 5f 3d de f4 63 3d
       0.042348374 -0.021053124 0.054529328 0.055653445
0000a0 13 db 8a bc 11 e7 98 3d a0 6d 6e bd fd f0 e3 bc
       -0.016950166 0.074659474 -0.058210015 -0.027824873
0000b0 bc 96 93 3d 98 21 9a bd 07 c0 78 bd 54 4c 33 3d
       0.07206485 -0.07525939 -0.060730007 0.043773964
0000c0 7e 32 8e bd 33 b1 52 bd 74 9b ab 3d a2 66 8e bd
       -0.06943224 -0.05143852 0.0837926 -0.069531694
0000d0 80 d0 80 3c ab cc 69 3d ca 77 85 3c f0 20 50 3d
       0.01572442 0.057079952 0.016292471 0.05081266
0000e0 9b 16 8a 3d 40 46 69 bd 06 4c 05 3d b0 57 14 bd
       0.06742593 -0.05695176 0.032543205 -0.036216438
0000f0 4c a5 e3 bc b9 1d 21 bd f2 bc 84 3b c5 42 92 bd
       -0.02778878 -0.039334986 0.0040508443 -0.071416415

fc3.weight f4 [10, 64]
000000 20 94 f6 3d bc 49 bd bd 6d 57 d8 3c 23 40 c0 3c
       0.12039971 -0.09242579 0.026408875 0.023468083
000010 70 ad dd bc 11 0a dd 3d 77 65 d1 bd 4e 85 ee 3d
       -0.02706024 0.10792936 -0.10224431 0.116465196
000020 fd 97 e4 bd 23 9a 88 bd f4 55 f0 bd 41 10 71 bd
       -0.11161802 -0.06670024 -0.11735144 -0.05885339
000030 20 cc c3 bd 7f e6 86 bd 00 90 97 bc 6e ef b2 3d
       -0.09560418 -0.065869324 -0.018501282 0.08737074
000040 51 89 85 bd 76 44 bc bd 34 12 8f bd b0 e6 c4 3c
       -0.06520332 -0.091927454 -0.06985894 0.024035782
000050 29 ee 1f 3a 1d 2c 0d bd f6 ed 28 bd f8 54 14 3d
       0.0006100857 -0.034465898 -0.041242562 0.036213845
000060 9f 6c 89 3d 3c cb ef 3d be d2 aa 3d 3a f4 bf bd
       0.06710171 0.11708686 0.08340977 -0.093727544
000070 60 26 b3 bd f9 a6 10 bd 0f 54 e5 3d 30 d7 6c 3c
       -0.08747554 -0.035315488 0.111976735 0.014455602
000080 cd 37 1f 3d f1 06 f8 bc 57 f7 13 bc d7 09 e2 3d
       0.038871575 -0.030276747 -0.009031138 0.11037033
000090 f1 26 7f bd cc 4f 9e bd 52 59 ad bd 8e 2a 38 3d
       -0.062292997 -0.07730064 -0.08464302 0.04496246
0000a0 db 04 e8 bd ec 32 e6 bd ca 20 9a 3d 07 1c b5 bd
       -0.11329051 -0.11240181 0.07525785 -0.088432364
0000b0 fb 56 d9 3d 01 90 96 bc 1f d2 8b bd c4 06 fa 3d
       0.10612293 -0.018379213 -0.06827187 0.12208322
0000c0 cd aa 51 bd c8 6d ac bc a2 be a4 bd 6d 31 64 3b
       -0.05118828 -0.021048442 -0.08044173 0.00348195
0000d0 4a 82 9d 3c 70 d4 bc 3d 48 22 55 bd 4d 90 96 3d
       0.019227166 0.09220207 -0.052034646 0.07351742
0000e0 ec 3b 7a bd 74 16 de bd a8 33 97 bc 38 c3 ad bc
       -0.061092302 -0.10844126 -0.018457249 -0.021211252
0000f0 bb 25 b1 3d dc e0 f6 3d ec f2 c1 3d f7 4d c8 bd
       0.08649775 0.12054607 0.09470162 -0.097804956
000100 98 ea a4 3d a4 2e b7 3d 64 f7 4a 3d 68 ef 74 bd
       0.08052558 0.08944443 0.049552336 -0.059798628
000110 90 5c 00 3e 25 f8 eb 3d 08 b5 e6 bd 87 44 a3 bc
       0.1253531 0.11521939 -0.11264998 -0.019930137
000120 0f 5d 8f bd a0 99 d0 3d b4 1d be bd da b5 f6 bc
       -0.070001714 0.10185552 -0.09283009 -0.03011601
000130 d9 e0 e7 3d 92 8b e2 bd 62 93 ea 3d e2 1f fb bd
       0.11322183 -0.11061777 0.11453892 -0.122619405
000140 20 df 09 3c 2b 3c fc bd 3d 73 f7 bd 20 4d a6 3c
       0.008415014 -0.12316164 -0.12082527 0.020300448
000150 a4 15 ce bb 37 aa 06 bd a7 83 ed bd ab 8d 9e bd
       -0.006289201 -0.032877173 -0.11597376 -0.07741865
000160 13 cb 0a bc 40 77 d7 3b 33 44 93 3d 73 fc 8a bb
       -0.008471268 0.006575495 0.07190742 -0.00424152
000170 4d d4 c0 3d 46 46 87 bd e4 7f d3 bd 62 43 82 bd
       0.09415493 -0.066052005 -0.103271276 -0.063605085
000180 c4 83 36 3d ee 8d e1 bd 35 d9 97 3d c9 e1 2b bd
       0.044559255 -0.11013399 0.07414476 -0.041963372
000190 e3 e3 60 3d ee bf 47 3d a6 96 86 bd c0 3d e3 bc
       0.05490483 0.048767023 -0.06571703 -0.027739406
0001a0 ce 22 8d bd a5 c0 28 bd 88 8f 37 3d f2 61 98 3a
       -0.06891404 -0.041199345 0.044814616 0.001162587
0001b0 1a 20 b8 bd 6e 6c ff bc 97 42 43 3c 75 81 c8 3d
       -0.08990498 -0.031179633 0.011917732 0.09790317
0001c0 c3 9c 8a 3d 90 e6 ba bd 4c d0 c1 3d d0 aa 3a bd
       0.06768181 -0.091260076 0.094635576 -0.045573056
0001d0 56 ac d7 3d e1 a3 8a 3d a2 de b1 bd e9 1f 89 bd
       0.10530917 0.06769539 -0.08685042 -0.066955395
0001e0 88 e0 86 3c 94 0c 76 3d 93 02 9e 3d 98 2d 06 3d
       0.016464487 0.06007059 0.07715335 0.032758325
0001f0 c3 e8 8b 3c c4 d6 7f 3d ae ab 04 3e 79 66 f6 3c
       0.017078763 0.062460676 0.12956116 0.03007816
000200 ba 71 e4 3b d9 8b 92 bd 1b b8 93 bd 34 6e 8f bc
       0.006971565 -0.0715558 -0.0721285 -0.017508604
000210 33 ea e8 3c b1 d3 98 bc 3f cc de bd 6b c5 f4 bd
       0.028431987 -0.01865563 -0.108788006 -0.11951717
000220 b2 b0 f5 bd d1 65 91 3d 5e 08 c5 bd 6e 11 8e bd
       -0.119965926 0.07099498 -0.096207365 -0.06936918
000230 18 ce 00 be 3c 11 27 3c 7e 32 a7 3d af b6 39 bc
       -0.12578619 0.01019698 0.081639275 -0.011335059
000240 34 49 9a bd 40 1d b9 3c 64 2d 54 3d 0a 00 e1 bd
       -0.07533494 0.022596955 0.0518011 -0.109863356
000250 58 20 b7 bd 1e 98 73 bd 02 ac 69 bd c5 21 97 bd
       -0.08941716 -0.059471242 -0.057048805 -0.07379488
000260 01 06 5b 3d 54 10 e4 3d 4d 22 fb 3d ae f4 15 3c
       0.053472523 0.11135927 0.12262402 0.009152574
000270 66 89 41 3d 23 0b f4 bd be 43 62 bd a0 bc 1a 3d
       0.047250174 -0.11916187 -0.055240385 0.037777543
000280 ae d1 42 bc aa ae 9b bd 16 7a 33 3c 8a f6 70 3d
       -0.011890812 -0.07601674 0.0109544005 0.058828868
000290 c9 a2 d4 bd 05 5e 39 bd 8e 0b 79 bd d0 bf eb bd
       -0.10382611 -0.04525568 -0.060802035 -0.11511195
0002a0 f3 b5 6f bd 2e 30 ee 3d ef c9 79 3d 20 3e b5 bc
       -0.05852313 0.11630283 0.060983595 -0.02212435
0002b0 c2 f6 7d bc 06 6e d6 bd 38 d2 eb 3c 52 04 03 be
       -0.015500726 -0.10470204 0.028786764 -0.12794617
0002c0 f6 90 13 bc b8 6d f2 3c 0c 45 f3 bd a1 1c cf bd
       -0.009006729 0.029593334 -0.11878404 -0.101128824
0002d0 70 fc ad 3d 86 43 cd bd 18 a1 cc 3d b9 36 05 bd
       0.08495414 -0.10022645 0.09991664 -0.03252289
0002e0 95 02 05 bd 54 87 bc 3d 3c a0 b4 bd fc 0c 2d bd
       -0.032473166 0.09205499 -0.08819625 -0.04224871
0002f0 ce 6d f0 3d 8a 1b 0b bc f0 0c ac bd bd 23 72 bd
       0.117396936 -0.008490453 -0.08400905 -0.059116114
000300 99 45 ec 3d 7b cc 4a bd 73 f2 bf 3d 34 1b e1 3d
       0.11536712 -0.049511414 0.093724154 0.10991517
000310 0b 4d 56 bd 50 e4 a3 3d 13 d2 ab bc 36 17 d9 bd
       -0.052319568 0.080025315 -0.020974195 -0.1060013
000320 24 ac ef 3d a2 6b d7 3d c8 40 a9 3d 6a 03 fa 3d
       0.11702755 0.10518576 0.08264309 0.122076824
000330 a4 25 ed 3d 08 50 e5 bd 00 58 f5 39 a9 3b aa 3b
       0.11579445 -0.111969054 0.00046795607 0.0051951003
000340 26 e6 a5 bd 29 20 bc 3d 19 ff 94 bd 5e 48 ce bd
       -0.08100538 0.091858216 -0.072752185 -0.10072397
000350 54 e2 c7 bd 94 2c f3 bb 5f 8a 67 bd 61 a3 fa bc
       -0.097599655 -0.0074210856 -0.056528445 -0.030595483
000360 cf a6 d8 3c 10 aa d5 bd bb a7 97 bd a8 60 8a 3d
       0.026446728 -0.104328275 -0.07405039 0.06756717
000370 2a f8 a8 3c 1b 00 d5 3c 20 9e d3 3d 90 c4 16 bd
       0.020626146 0.026001027 0.10332894 -0.03680855
000380 35 3a 2a bd eb 29 b3 bd 46 5a f0 bc e6 03 fe bd
       -0.041559417 -0.087482296 -0.02933992 -0.12403087
000390 c2 42 9f 3d 18 5e c6 bc a3 19 93 3d 1f 2d a3 3d
       0.07776405 -0.02421479 0.07182624 0.079675905
0003a0 42 30 99 3d 60 1f ac bd 6f 1d 41 3d 36 ef 1a 3d
       0.074799076 -0.08404422 0.04714721 0.037825786
0003b0 a3 8e de 3d 69 0a 7b 3c f3 86 a1 bd ec a8 d1 bd
       0.108670495 0.015322306 -0.07887068 -0.102372974
0003c0 ef 80 ee 3d b4 b4 3a 3d 9c 2b e7 bd ab 16 c1 3d
       0.11645686 0.04558249 -0.11287615 0.09428152
0003d0 f0 f7 43 3d 40 5b 3a 3d 78 2e aa 3b 3f 62 bc 3d
       0.047843874 0.04549718 0.005193528 0.091984265
0003e0 96 9c d4 3d ba 51 73 bc cc 0c ef bd 8c de d5 3d
       0.10381429 -0.014851028 -0.11672363 0.10442838
0003f0 ec dd 17 bd ca 0e 8a 3d a0 ab b2 3d 1b 52 e7 bd
       -0.037076876 0.06741102 0.08724141 -0.11294957

fc3.bias f4 [10]
000000 09 e9 a8 3c 2b 70 08 bd 60 07 a2 3d 7d 9f ef 3c
       0.020618932 -0.033310097 0.07911563 0.029250855
000010 27 62 a4 3c 73 75 3d bd 42 39 16 bd 1b b7 8e 3d
       0.020066334 -0.046254586 -0.0366757 0.06968518
000020 09 b6 68 bd 74 07 cc 3c
       -0.056814227 0.024905898
