developpement/MNIST/MNIST_model.pth (torch, 184119 bytes, 10 tensors)

conv1.weight f4 [8, 1, 5, 5]
0.075814575 -0.15313877 -0.06265976 -0.1169679 0.0039665187 -0.057254363 -0.034658417 0.07495142
0.0075842617 -0.12135863 -0.01914266 0.05357275 -0.010491103 0.15768228 -0.019433925 0.10606896
0.14961848 0.13294438 0.022912402 0.1637933 -0.11069044 -0.06421827 -0.014327439 0.1721887
0.03871655 -0.07298579 0.07701626 -0.0971352 0.030591516 0.18240967 -0.17119616 -0.04555249
-0.19249474 -0.060604136 0.08333761 0.030769354 0.06254443 -0.12818626 -0.21203282 -0.10222688
0.11703928 -0.11950188 0.11753927 -0.0124370875 0.033149198 0.13438222 0.036650017 -0.17060912
-0.14900413 -0.22040313 -0.11809736 0.11914593 0.045727737 -0.16397847 -0.17874841 -0.1514599
0.13209619 -0.05641954 0.1628053 0.012244081 -0.19413376 -0.1901522 -0.12895474 -0.20222364
-0.1161555 0.105574824 0.17162865 0.14438602 -0.20684195 -0.050341755 -0.10247119 0.0030097107
-0.024256207 0.0018503852 -0.12458956 0.07145316 -0.07776773 0.108795874 0.0063428567 -0.16243492
0.01482139 -0.17981344 -0.106519595 -0.08549301 0.14412533 -0.20444126 -0.1807984 -0.19694495
0.15527387 0.08432336 -0.05234179 -0.0773246 -0.0176778 0.16539791 0.14676344 -0.019694485
0.12317862 0.1824155 0.10059751 0.18203966 -0.19130394 0.16079414 0.1917957 -0.07046318
0.06374907 -0.17861211 -0.05719343 0.10951118 0.20818019 -0.10710269 -0.12421668 0.033241138
-0.1301813 -0.04957613 0.12612805 -0.06447588 -0.13197637 0.112132855 0.18413545 -0.09634283
0.08717053 -0.17446144 -0.17421603 -0.006064014 0.12974562 -0.008552759 -0.14440602 0.107841104
0.0058417507 0.08862366 0.16577381 0.07393862 0.08587179 -0.0037286077 0.145263 0.11182783
0.014585958 0.15615629 -0.07204763 0.14961693 -0.09674335 -0.07100913 0.15493901 -0.16583018
-0.15072599 0.014077404 0.18472794 0.013088465 -0.10761883 0.18074498 -0.04408195 -0.13501602
-0.12055124 -0.06266033 0.13146153 0.09422042 0.024750542 0.19300686 -0.10926954 -0.0531623
0.14820921 -0.13661924 0.14314282 0.16766655 0.09321299 -0.15766034 0.04479172 0.15331179
0.119506836 -0.116682634 -0.10054664 0.18684764 0.15967129 0.032790452 -0.17443822 -0.053822514
0.0033550262 0.06796264 0.22584283 0.140559 0.1600282 -0.0015703893 -0.013549632 0.0444969
-0.051713552 -0.17959744 0.08989046 0.20294718 0.13074057 -0.16686776 -0.120032124 0.20337495
-0.048689704 -0.04113181 -0.20872629 -0.06593375 0.13644575 -0.09164329 -0.1578091 -0.0103200255
00000000: ac44 9b3d 69d0 1cbe c353 80bd de8c efbd
00000010: 92f9 813b 8d83 6abd fcf5 0dbd 2180 993d
00000020: 6685 f83b e08a f8bd 11d1 9cbc 1a6f 5b3d
00000030: e0e2 2bbc 7777 213e e533 9fbc af3a d93d
00000040: 9635 193e 9222 083e cab2 bb3c 6eb9 273e
00000050: abb1 e2bd de84 83bd a2bd 6abc 3c52 303e
00000060: 3f95 1e3d 9379 95bd b3ba 9d3d d2ee c6bd
00000070: 0f9b fa3c 9ac9 3a3e 0c4e 2fbe 3f95 3abd
00000080: 571d 45be 0b3c 78bd e9ac aa3d 0310 fc3c
00000090: 4b17 803d 4243 03be 221f 59be 545c d1bd
000000a0: 4ab2 ef3d 67bd f4bd 6eb8 f03d edc4 4bbc
000000b0: 74c7 073d 7e9b 093e 541e 163d 28b4 2ebe
000000c0: 8a94 18be 5cb1 61be 07dd f1bd c802 f43d
000000d0: 024d 3b3d f9e9 27be d309 37be 4e18 1bbe
000000e0: 3944 073e 2d18 67bd 6fb6 263e 669b 483c
000000f0: 00cb 46be 42b7 42be b60c 04be b713 4fbe
00000100: efe2 edbd 9d37 d83d 6cbf 2f3e eed9 133e
00000110: 60ce 53be 2833 4ebd 6adc d1bd 913e 453b
00000120: f4b4 c6bc a088 f23a d028 ffbd 0956 923d
00000130: b044 9fbd 5fd0 de3d bdd7 cf3b 5755 26be
00000140: 6ad5 723c 0421 38be f226 dabd f616 afbd
00000150: 9795 133e 0d59 51be 3723 39be f0ab 49be
00000160: 1d00 1f3e bab1 ac3d 5864 56bd 5c5c 9ebd
00000170: 09d1 90bc 125e 293e 2849 163e 5456 a1bc
00000180: 1345 fc3d 21cb 3a3e 1106 ce3d 9b68 3a3e
00000190: 2ee5 43be 38a7 243e 1866 443e 004f 90bd
000001a0: df8e 823d 18e6 36be a843 6abd 6647 e03d
000001b0: 302d 553e a858 dbbd 5165 febd dc27 083d
000001c0: 3f4e 05be 5710 4bbd b627 013e ee0b 84bd
000001d0: d024 07be e9a5 e53d 018e 3c3e 644f c5bd
000001e0: 7686 b23d 05a6 32be b065 32be a3b4 c6bb
000001f0: 09dc 043e df20 0cbc 2cdf 13be ccdb dc3d
00000200: 286c bf3b 5280 b53d 9cc0 293e 226d 973d
00000210: 8ddd af3d a85b 74bb d3bf 143e fd05 e53d
00000220: f1f9 6e3c 6fe7 1f3e b58d 93bd 2e35 193e
00000230: 6121 c6bd 3c6d 91bd 55a8 1e3e 63cf 29be
00000240: ea57 1abe e9a4 663c 5229 3d3e 0071 563c
00000250: 4367 dcbd 3615 393e 468f 34bd a441 0abe
00000260: 92e3 f6bd 0f54 80bd da9d 063e a3f6 c03d
00000270: a6c1 ca3c 97a3 453e b5c8 dfbd b6c0 59bd
00000280: 28c4 173e eae5 0bbe 0894 123e c8b0 2b3e
00000290: 74e6 be3d b671 21be 8677 373d c4fd 1c3e
000002a0: 00c0 f43d 4ef7 eebd 66eb cdbd fd54 3f3e
000002b0: df80 233e 484f 063d ef9f 32be ff74 5cbd
000002c0: 00e0 5b3b ff2f 8b3d 5843 673e b3ee 0f3e
000002d0: 6fde 233e 85d5 cdba 47ff 5dbc 6242 363d
000002e0: 97d1 53bd 64e8 37be 7d18 b83d 63d1 4f3e
000002f0: dbe0 053e 62df 2abe 67d3 f5bd 8641 503e
00000300: db6e 47bd d479 28bd 58bc 55be 4608 87bd
00000310: 6fb8 0b3e 7aaf bbbd b598 21be 5315 29bc

conv1.bias f4 [8]
-0.17882402 -0.086816944 0.19038185 -0.049795885 -0.08500322 -0.045184616 -0.10038526 0.19422063
00000000: a51d 37be 15cd b1bd 76f3 423e c5f6 4bbd
00000010: 2b16 aebd 8113 39bd ca96 cdbd c6e1 463e

conv2.weight f4 [16, 8, 5, 5]
0.070116766 -0.0044212844 -0.021996003 0.017888492 -0.050541595 0.06208807 0.080641486 0.03249709
0.02857185 0.057366 0.06845119 -0.022065846 -0.028429033 -0.062805295 0.0029712804 0.022877643
0.051338386 -0.037908383 -0.047241192 -0.020674204 -0.059116594 0.07064921 0.07141562 -0.027554348
-0.015701732 -0.012184632 0.016174316 0.07089025 0.054120515 -0.011745066 -0.018134741 0.040693626
-0.04027706 0.03944268 0.01187036 -0.023172118 0.036183137 0.070111796 -0.05244302 -0.064691976
-0.054334063 0.034085147 -0.023544809 -0.0031342274 0.021372793 -0.021813916 -0.072616205 -0.025755243
-0.021225402 0.05274038 -0.05826481 0.010718263 0.054620992 0.041454513 -0.042097732 -0.036067083
0.008557401 -0.015145186 0.067053705 -0.057451535 0.04394515 -0.02504154 -0.06665519 -0.051628493
-0.0024809518 -0.05670072 -0.06552382 0.05429826 0.017341407 0.047507167 -0.04141931 -0.06471958
0.05897327 0.019826205 -0.049414773 0.05605085 -0.05900176 0.06446797 0.017668972 -0.056259766
0.020127762 0.03936757 -0.02264068 0.059034538 -0.054122034 0.03507216 0.060200084 -0.010728218
0.073510766 0.07281607 -0.002932259 0.062300753 0.0032743374 0.009999 0.022076279 0.060770392
-0.0015672689 -0.031719826 0.032943144 -0.04785023 -0.008824745 -0.0054918136 0.00303767 -0.02284125
-0.0075708814 -0.0018015526 0.026330847 0.03677473 -0.039417136 0.018480428 0.04036609 -0.0013544589
0.05670779 -0.027205888 0.009127609 0.026586216 -0.022158023 0.03819301 0.066739604 0.039480574
-0.051667154 0.036959056 0.0631066 -0.04987139 -0.050817568 -0.037092634 0.025858592 -0.00028744448
0.0057401923 0.006886856 0.018376691 0.028406426 -0.046144832 0.036452863 0.06072014 0.0733968
0.029007142 -0.025026659 0.008363626 0.026331147 -0.018139202 0.025798464 -0.049617365 -0.0036108813
0.043778468 -0.03590465 -0.054602988 0.060161684 -0.03628309 -0.04113464 -0.018175827 0.06868408
-0.009102924 0.035263423 -0.019856624 0.062238153 -0.059868157 -0.035726193 -0.022611098 -0.036722004
0.058418844 -0.015692007 0.042605184 0.061159827 0.04976842 0.021776771 0.010046129 0.040111467
0.042582978 -0.021743655 -0.028613878 -0.035618037 0.046260316 0.038334396 -0.04641351 0.046818335
-0.063142315 -0.03877245 0.01786854 -0.05474516 -0.045307793 -0.046749033 0.053026706 -0.046111327
-0.046511915 -0.018566156 0.015143842 -0.055867847 0.009117499 0.03320825 0.0092800995 0.03047238
-0.073818326 -0.049075402 -0.029941559 0.016323071 -0.039088972 0.03707947 0.031371538 0.052439403
-0.045137018 -0.06756422 0.018061966 -0.06177534 0.00080361456 -0.042410526 -0.06538475 0.06920077
0.0016047895 -0.041439295 -0.032052338 0.022852764 -0.022108063 0.010743922 0.027018236 -0.038592163
0.060374677 -0.015384197 -0.045248576 0.023556368 -0.06568911 0.04352433 0.064117946 -0.025284877
0.02871108 -0.045081854 -0.03700721 0.0656637 -0.015491844 -0.035727765 0.043255683 0.042050067
-0.052803095 0.0190673 -0.047585722 -0.006111298 -0.030392954 0.020843506 -0.029833721 -0.05952671
-0.0023037368 0.05823395 0.008052969 0.041248012 0.015579469 -0.05904497 -0.030069537 0.04764201
-0.06607581 0.06161385 -0.032633208 0.05837962 0.056341495 -0.057230465 0.009190167 8.6443026e-05
00000000: 6199 8f3d 6ce0 90bb f630 b4bc e38a 923c
00000010: b404 4fbd 0f50 7e3d 5d27 a53d ab1b 053d
00000020: 830f ea3c 9cf8 6a3d 2330 8c3d 6fc3 b4bc
00000030: 01e4 e8bc 10a0 80bd d0b9 423b e569 bb3c
00000040: 3348 523d d245 1bbd fb7f 41bd f35c a9bc
00000050: 3e24 72bd 88b0 903d 5a42 923d a8b9 e1bc
00000060: eba0 80bc 0da2 47bc 0080 843c e82e 913d
00000070: 79ad 5d3d 616e 40bc 4f8f 94bc 5cae 263d
00000080: 8ff9 24bd a68e 213d e67b 423c 74d3 bdbc
00000090: c534 143d c696 8f3d 7ece 56bd 3a7d 84bd
000000a0: 658d 5ebd de9c 0b3d 0be1 c0bc 9c67 4dbb
000000b0: ff15 af3c 19b3 b2bc ceb7 94bd a9fc d2bc
000000c0: e5e0 adbc 4c06 583d 15a7 6ebd a79b 2f3c
000000d0: 43ba 5f3d 35cc 293d ac6e 2cbd 14bb 13bd
000000e0: 5734 0c3c 8423 78bc 7453 893d 4d52 6bbd
000000f0: d4ff 333d ea23 cdbc 8482 88bd 6678 53bd
00000100: 7797 22bb 043f 68bd 5a31 86bd da67 5e3d
00000110: 910f 8e3c e096 423d 4ba7 29bd b38b 84bd
00000120: f58d 713d 916a a23c 2567 4abd 9395 653d
00000130: d4ab 71bd c807 843d 85be 903c a470 66bd
00000140: fae2 a43c e43f 213d f378 b9bc 33ce 713d
00000150: 11af 5dbd d3a7 0f3d 5d94 763d 68c5 2fbc
00000160: d08c 963d 9720 953d 252b 40bb 132f 7f3d
00000170: 4496 563b d8d2 233c 50d9 b43c 60ea 783d
00000180: d16c cdba a6ec 01bd 64ef 063d 9afe 43bd
00000190: aa95 10bc acf4 b3bb a513 473b 931d bbbc
000001a0: 2815 f8bb 1322 ecba cab3 d73c 19a1 163d
000001b0: dd73 21bd 4464 973c ea56 253d 1988 b1ba
000001c0: 6d46 683d e2de debc f88b 153c 56cb d93c
000001d0: be84 b5bc 4670 1c3d c6ae 883d 62b6 213d
000001e0: f0a0 53bd 6162 173d 083e 813d f145 4cbd
000001f0: 1526 50bd 72ee 17bd 66d5 d33c 25b4 96b9
00000200: 3918 bc3b 23ab e13b b78a 963c 98b4 e83c
00000210: 5d02 3dbd 994f 153d aeb5 783d 1051 963d
00000220: 63a0 ed3c b504 cdbc 9707 093c 6bb4 d73c
00000230: aa98 94bc 4d57 d33c 943b 4bbd 89a4 6cbb
00000240: 0d51 333d c110 13bd 62a7 5fbd 196c 763d
00000250: 949d 14bd cc7c 28bd 79e5 94bc 3daa 8c3d
00000260: 6e24 15bc 6170 103d 5caa a2bc 6fed 7e3d
00000270: 5038 75bd a155 12bd e93a b9bc d069 16bd
00000280: 9948 6f3d 868c 80bc c682 2e3d ba82 7a3d
00000290: f9d9 4b3d 3365 b23c 8598 243c ec4b 243d
000002a0: 7d6b 2e3d c01f b2bc a767 eabc 38e4 11bd
000002b0: 757b 3d3d 8704 1d3d 181c 3ebd 95c4 3f3d
000002c0: c250 81bd dccf 1ebd 0b61 923c 763c 60bd
000002d0: aa94 39bd ea7b 3fbd 8832 593d 3bdf 3cbd
000002e0: 4783 3ebd 0d18 98bc e11d 783c afd5 64bd
000002f0: 9061 153c 6005 083d 8f0b 183c 36a1 f93c
00000300: 102e 97bd 4a03 49bd 0048 f5bc f6b7 853c
00000310: c21b 20bd a4e0 173d 717f 003d b3ca 563d
00000320: 98e1 38bd 1c5f 8abd b0f6 933c 2408 7dbd
00000330: a9a9 523a a9b6 2dbd 71e8 85bd 22b9 8d3d
00000340: cd57 d23a 40bc 29bd 5049 03bd b835 bb3c
00000350: f81b b5bc 4607 303c 5955 dd3c d112 1ebd
00000360: 704b 773d 000e 7cbc 9256 39bd 49f9 c03c
00000370: 0388 86bd 9146 323d 4550 833d 3b22 cfbc
00000380: 8033 eb3c c0a7 38bd df94 17bd b17a 863d
00000390: 81d1 7dbc 4757 12bd df2c 313d b13c 2c3d
000003a0: 0f48 58bd 0733 9c3c 3fe9 42bd 4941 c8bb
000003b0: a5fa f8bc 00c0 aa3c d965 f4bc 48d2 73bd
000003c0: 4afa 16bb b986 6e3d 9af0 033c adf3 283d
000003d0: 0741 7f3c 23d9 71bd 6454 f6bc 4524 433d
000003e0: c152 87bd ce5e 7c3d 66aa 05bd 781f 6f3d
000003f0: 57c6 663d 7e6a 6abd 5b92 163c bf48 b538

conv2.bias f4 [16]
0.014835818 -0.054511838 -0.032027315 -0.026330626 0.001138134 0.061187238 0.012022288 0.066574484
0.062215023 -0.0056588645 0.0390484 -0.018511478 0.0369092 -0.051165424 0.056014504 -0.031097595
00000000: ee11 733c ce47 5fbd 132f 03bd 53b3 d7bc
00000010: 712d 953a 789f 7a3d 21f9 443c 3458 883d
00000020: 2ed5 7e3d ff6d b9bb 37f1 1f3d 62a5 97bc
00000030: 1a2e 173d d692 51bd 776f 653d 62c0 febc

fc1.weight f4 [128, 256]
0.015588232 -0.030221455 -0.020245267 -0.04684893 -0.037730798 0.0048824796 -0.04815741 0.049152344
-0.046338085 0.021442004 0.050339825 -0.061399627 0.0016279258 -0.047411166 0.025424905 0.048301
0.016914628 0.06087828 0.04740855 -0.046518534 -0.051998235 -0.015824357 -0.0119279325 -0.050500337
-0.03455589 -0.026993219 -0.035970178 -0.041109733 0.017256202 0.03727311 -0.016318373 -0.029876167
-0.029999936 0.007621723 0.004394063 -0.045412615 -0.048399415 0.057029583 -0.048325922 -0.052276224
0.04291689 0.03161236 -0.02712065 -0.05685075 0.036974333 0.008284889 0.044645622 -0.033281893
0.038138516 0.009506908 -0.022118516 0.022270087 -0.04100415 -0.034523353 0.034620795 -0.0031491641
0.045977335 0.0098179225 0.012457188 -0.039890956 -0.034802224 0.06217526 -0.053277295 -0.0051273056
-0.022157228 -0.004672183 0.016825616 -0.026852334 -0.051324558 -0.004438814 0.05205435 0.046505872
0.026050482 -0.05637341 0.022479093 0.05746381 0.023595432 -0.01979916 -0.027443131 0.000329696
0.002002156 0.047194716 -0.025343917 0.05709069 -0.02858899 -0.012232566 0.02456201 -0.0134731
-0.023466809 0.045421794 0.019833613 -0.010274364 -0.014953204 -0.0010877602 0.045092124 -0.0111003835
-0.010241229 -0.04684551 -0.011167454 -0.037993103 -0.0054979776 0.03895537 0.0172812 -0.018532181
-0.02396884 -0.061046913 0.023407763 0.002460503 0.0066625867 0.043203294 0.033911183 0.010540038
-0.017264912 -0.041348696 0.019224621 0.017238528 0.025125576 -0.012478878 -0.02807347 0.010060512
0.00067879574 0.036110286 0.020297196 -0.056954995 -0.029656857 -0.043447476 0.034418806 0.014124174
0.02570671 0.019924408 -0.03144986 -0.052974876 -0.056275547 0.058779314 -0.021579048 -0.031127453
-0.051939752 0.04463558 0.059751716 -0.032425698 -0.04879111 0.04188151 0.025010925 -0.0045970203
-0.026585905 0.04232731 -0.0014618932 -0.023361383 -0.017769134 0.006565596 -0.051880334 -0.03183672
-0.001957219 -0.01595892 -0.022475123 0.051208287 -0.031005863 0.038684543 -0.056626726 -0.062064882
0.059087276 0.041950572 0.03817571 -0.047706753 -0.00825905 -0.0004603971 -0.0214615 -0.05549259
0.030696617 0.036849476 -0.009257362 -0.038120624 0.019937273 0.054757234 0.04375476 -0.024166664
-0.055839203 0.03746059 0.053031247 -0.027386626 0.04620693 0.024837594 -0.037533686 -0.02090423
-0.015022904 0.0020453816 -0.0100057935 0.023755379 -0.03670312 -0.025639031 0.020271115 -0.02772491
0.05538806 -0.03358877 0.013058654 -0.052520413 -0.008321978 -0.0028812808 -0.01885817 -0.01959607
-0.054260433 0.01606345 0.029027581 -0.058676336 -0.044961732 0.017726175 -0.0031288494 0.041788913
-0.019408986 0.059378188 -0.048177794 -0.035021793 -0.0539025 0.033100974 0.048209947 0.02456354
0.04671405 -0.011640697 -0.009243921 -0.044148836 -0.0025228963 -0.01854502 -0.032132432 0.048089646
-0.029801555 0.050200824 -0.061058942 -0.04687597 -0.009483459 -0.037672523 0.05805652 0.025655234
0.047923233 -0.053917203 -0.04354655 0.011304356 0.02716257 -0.05987406 0.048563316 0.018542064
0.034298863 -0.048565518 0.056162883 -0.030537937 0.040227152 -0.02259336 -0.008971908 -0.021339588
-0.015146901 -0.027178064 0.034288626 -0.0046410416 -0.03232796 -0.020275323 0.002180186 -0.032169633
00000000: c965 7f3c fc92 f7bc 67d9 a5bc aae4 3fbd
00000010: 9c8b 1abd 35fd 9f3b b440 45bd f853 493d
00000020: 01cd 3dbd 24a7 af3c 2231 4e3d 2d7e 7bbd
00000030: 2060 d53a 3632 42bd e447 d03c 45d7 453d
00000040: 8c90 8a3c 815b 793d 782f 423d 388a 3ebd
00000050: 1afc 54bd 15a2 81bc 606d 43bc 71d9 4ebd
00000060: 7a8a 0dbd e220 ddbc 7755 13bd ae62 28bd
00000070: e15c 8d3c b0ab 183d 1cae 85bc ddbe f4bc
00000080: 6dc2 f5bc a6bf f93b 12fc 8f3b 9402 3abd
00000090: 773e 46bd da97 693d 67f1 45bd 981f 56bd
000000a0: 9fc9 2f3d f67b 013d 202c debc 55dc 68bd
000000b0: 6672 173d 58bd 073c 54de 363d 9852 08bd
000000c0: 2237 1c3d ddc2 1b3c e431 b5bc c26f b63c
000000d0: f8f3 27bd 5c68 0dbd 89ce 0d3d 3562 4ebb
000000e0: bb52 3c3d 5adb 203c 3c19 4c3c b364 23bd
000000f0: c78c 0ebd 7cab 7e3d 4b39 5abd f502 a8bb
00000100: 1383 b5bc 1d19 99bb e0d5 893c 6df9 dbbc
00000110: b339 52bd 7873 91bb f136 553d f17c 3e3d
00000120: d267 d53c cee7 66bd 1326 b83c 2c5f 6b3d
00000130: 354b c13c d931 a2bc 6bd0 e0bc 0cdb ac39
00000140: 9b36 033b 3f4f 413d 0c9e cfbc edd7 693d
00000150: 7533 eabc 1a6b 48bc 4536 c93c 47be 5cbc
00000160: 773d c0bc 340c 3a3d 1a7a a23c ce55 28bc
00000170: 49fe 74bc 2d93 8eba 85b2 383d 62de 35bc
00000180: d4ca 27bc 14e1 3fbd b2f7 36bc a89e 1bbd
00000190: 6128 b4bb ab8f 1f3d 4e91 8d3c cdd0 97bc
000001a0: 4d5a c4bc 540c 7abd a3c1 bf3c 6440 213b
000001b0: d451 da3b f0f5 303d 74e6 0a3d 20b0 2c3c
000001c0: 256f 8dbc 405d 29bd f47c 9d3c d037 8d3c
000001d0: 27d4 cd3c 3574 4cbc 55fa e5bc d9d4 243c
000001e0: 36f1 313a 61e8 133d 4e46 a63c a449 69bd
000001f0: f0f2 f2bc fbf5 31bd bcfa 0c3d 1469 673c
00000200: e196 d23c 8338 a33c 92d1 00bd 2ffc 58bd
00000210: 3081 66bd 94c2 703d 8bc6 b0bc 00ff febc
00000220: c7be 54bd ccd3 363d 37be 743d cfd0 04bd
00000230: 30d9 47bd f28b 2b3d b6e3 cc3c 9aa2 96bb
00000240: afca d9bc 675f 2d3d ff9c bfba 5f60 bfbc
00000250: 9390 91bc 3624 d73b 7980 54bd 3867 02bd
00000260: b044 00bb 48bc 82bc c01d b8bc c8bf 513d
00000270: 0200 febc af73 1e3d 6df1 67bd bf37 7ebd
00000280: 8005 723d 5dd4 2b3d 225e 1c3d 2868 43bd
00000290: f750 07bc 7461 f1b9 07d0 afbc 334c 63bd
000002a0: 7977 fb3c 7aef 163d 31ac 17bc 5f24 1cbd
000002b0: 7e53 a33c 1f49 603d 3138 333d 2bf9 c5bc
000002c0: a6b7 64bd 4770 193d 4b37 593d eb59 e0bc
000002d0: 7a43 3d3d 3678 cb3c ecbc 19bd 593f abbc
000002e0: a022 76bc cf0b 063b 57ef 23bc a49a c23c
000002f0: 0356 16bd f208 d2bc 9c0f a63c 5a1f e3bc
00000300: 97de 623d 6194 09bd f7f3 553c a51f 57bd
00000310: e858 08bc dfd3 3cbb 737c 9abc f087 a0bc
00000320: 3040 5ebd 7f97 833c 40cb ed3c 9956 70bd
00000330: cb29 38bd 7c36 913c 620d 4dbb da2a 2b3d
00000340: 98ff 9ebc 8b36 733d 1456 45bd 0373 0fbd
00000350: dec8 5cbd e394 073d cb77 453d 7a39 c93c
00000360: 3b57 3f3d 9fb8 3ebc d173 17bc 69d5 34bd
00000370: 2d57 25bb baeb 97bc 4c9d 03bd a6f9 443d
00000380: 6422 f4bc 619f 4d3d f118 7abd 0401 40bd
00000390: 8360 1bbc 814e 1abd accc 6d3d ed2a d23c
000003a0: 274b 443d 49d8 5cbd de5d 32bd e835 393c
000003b0: 0a84 de3c 813e 75bd 54ea 463d 87e5 973c
000003c0: f77c 0c3d a3ec 46bd 0d0b 663d b22a fabc
000003d0: 3ac5 243d b615 b9bc e9fe 12bc 5cd0 aebc
000003e0: b52a 78bc 88a4 debc 3b72 0c3d e113 98bb
000003f0: 536a 04bd 6f18 a6bc 74e1 0e3b 4ec4 03bd

fc1.bias f4 [128]
-0.05565629 -0.05243606 -0.057876725 0.025556903 0.006038107 0.03465881 0.016476713 -0.0075229253
0.007424639 0.06440988 0.025056273 0.013425689 0.01883879 0.062658176 0.03767022 0.0065204343
-0.0068599214 -0.010295266 0.04250074 -0.04071212 -0.0368814 -0.04319595 0.049448173 0.0038593998
-0.0051869308 0.03382371 -0.04030705 0.016917929 0.00610347 0.004528201 0.025269058 0.05185769
0.014752149 0.028730856 -0.011299205 0.05408512 -0.0072590844 -0.019746153 0.04210782 -0.0021285508
0.047354203 -0.0034552321 -0.011834726 0.0042190324 0.03871546 0.008458053 -0.024174822 -0.04562933
0.012005235 0.03493824 0.026958104 -0.05380229 -0.01891951 0.04448344 -0.022394603 -0.057921287
0.027577179 0.041458573 -0.0069620186 -0.04524959 0.031779267 -0.062341563 0.03625283 0.04656654
0.03837315 0.030918801 -0.052639518 0.0597226 -0.043823462 -0.014829998 0.021036284 -0.010271492
0.026999714 -0.01292478 0.02619767 -0.04677316 0.008911671 0.014384012 -0.013998188 0.054670073
-0.039088547 -0.062357638 0.03777316 -0.002475067 0.011023748 0.018828994 -0.034759723 0.06606776
0.038537912 0.016396986 -0.060402274 0.025724694 -0.012376859 0.014205022 -0.020894438 0.037085578
0.043198306 -0.021636799 0.025030743 0.04876638 -0.06207346 -0.03367295 0.06184489 0.062062718
0.021790449 0.021898117 0.017864428 -0.009659308 -0.058909103 -0.0603363 -0.046888 -0.025656573
0.059774883 -0.02160713 0.023327708 -0.0025037394 0.034545545 -0.03887434 -0.037277088 0.010734868
-0.061613645 -0.019357314 -0.0041715843 -0.042489506 -0.028309615 -0.02495259 0.015760757 -0.057674125
00000000: daf7 63bd 32c7 56bd 2510 6dbd b65c d13c
00000010: 50db c53b 65f6 0d3d 2cfa 863c df82 f6bb
00000020: 634a f33b 54e9 833d d042 cd3c 6cf7 5b3c
00000030: ce53 9a3c ee52 803d 174c 1a3d 5ea9 d53b
00000040: 31c9 e0bb 7aad 28bc 4215 2e3d c0c1 26bd
00000050: f310 17bd 3dee 30bd 2b8a 4a3d fced 7c3b
00000060: 21f7 a9bb bb8a 0a3d 0119 25bd 7897 8a3c
00000070: 9eff c73b 4e61 943b 0e01 cf3c bb68 543d
00000080: ffb2 713c f95c eb3c 4d20 39bc 5c88 5d3d
00000090: 9ddd edbb afc2 a1bc 4079 2c3d 287f 0bbb
000000a0: 7bf6 413d 2d71 62bb 70e6 41bc cf3f 8a3b
000000b0: 1a94 1e3d a593 0a3c 470a c6bc d2e5 3abd
000000c0: 9bb1 443c 661b 0f3d 3ed7 dc3c ca5f 5cbd
000000d0: 17fd 9abc 4534 363d e374 b7bc df3e 6dbd
000000e0: 89e9 e13c 77d0 293d a521 e4bb a257 39bd
000000f0: fa2a 023d de59 7fbd d97d 143d 8ebc 3e3d
00000100: 2a2d 1d3d 6d49 fd3c 899c 57bd af9f 743d
00000110: 3b80 33bd 85f9 72bc 4954 ac3c c349 28bc
00000120: 812e dd3c 75c2 53bc 7f9c d63c 3795 3fbd
00000130: 4202 123c ebaa 6b3c a858 65bc baed 5f3d
00000140: 501b 20bd b96a 7fbd 07b8 1a3d bc34 22bb
00000150: f39c 343c 433f 9a3c 3660 0ebd 894e 873d
00000160: eed9 1d3d f952 863c 6068 77bd 98bc d23c
00000170: 4fc8 4abc 2ebc 683c d02a abbc 0ce7 173d
00000180: b5f0 303d a83f b1bc 460d cd3c 41bf 473d
00000190: be40 7ebd a6ec 09bd 1151 7d3d 7a35 7e3d
000001a0: e281 b23c ae63 b33c 6c58 923c 1342 1ebc
000001b0: ac4a 71bd 3223 77bd a20d 40bd bc2d d2bc
000001c0: 82d6 743d 7001 b1bc c019 bf3c c715 24bb
000001d0: a17f 0d3d b33a 1fbd dcaf 18bd 4de1 2f3c
000001e0: 975e 7cbd 3b93 9ebc c9b1 88bb 7a09 2ebd
000001f0: 91e9 e7bc 6069 ccbc b41c 813c b43b 6cbd

fc2.weight f4 [64, 128]
0.019400656 0.084811255 -0.074240305 -0.050228395 0.052013278 0.008657948 0.08581776 0.04057848
0.07248779 0.08673946 -0.077529624 -0.034826737 -0.00024129932 0.022543637 0.037583683 -0.0026666326
0.027349982 0.07482218 0.008697068 -0.07054912 -0.0075242966 -0.017475862 -0.07354095 -0.0012498118
0.058999438 0.03586178 -0.07758824 -0.015113866 0.0610335 0.071319066 -0.012699184 0.016705198
-0.031242006 0.05228828 -0.019614274 0.07651774 0.0658141 0.03065814 0.07251082 0.034102835
-0.018181467 0.03784219 0.024583764 -0.015255324 0.014713126 0.029936135 0.06763449 -0.08353032
-0.03608085 0.035497554 0.086045995 -0.0082376525 -0.023540031 -0.07890347 0.06572645 -0.007862531
0.059192877 0.08649521 -0.026326103 -0.07589229 -0.0028159702 0.029864922 -0.028344443 0.0672751
-0.054198362 -0.08725442 -0.0013820233 0.058089007 -0.072658 -0.07945745 0.006638237 0.034357887
0.022348853 -0.023535592 -0.040863942 0.05160719 0.014614646 0.0014725648 -0.004278724 0.023747128
0.025132583 0.04220386 0.04821504 -0.056533795 -0.011879469 -0.016133007 0.057037894 0.016115872
0.06738016 0.04774335 0.030292287 0.07270805 0.006242601 -0.08939028 0.07099214 -0.016543712
-0.08434325 0.06490611 -0.07063347 -0.015994994 0.016477542 -0.005793479 0.07945964 0.05187492
0.06796535 0.006206671 0.08081683 -0.06859356 0.024503672 0.0014147474 -0.073223 -0.08555562
0.03730397 0.0022845985 0.08407143 0.001424479 0.011488439 -0.033261646 -0.07888563 0.052747358
0.078292385 -0.060091477 0.059128534 -0.049508106 -0.030655326 0.06815904 0.067906626 -0.04597345
0.02173689 -0.06559892 -0.005499953 -0.054741953 -0.040880553 0.08683086 0.017574865 -0.017636506
-0.045597628 0.006823749 -0.034009695 -0.007906219 -0.015523656 -0.08516874 -0.087550506 -0.02987746
-0.030846054 -0.08366606 0.008728379 0.018834917 -0.01143574 -0.04230933 0.0041394588 0.052838683
-0.07561487 0.032424465 0.0820917 0.05720488 -0.029137399 0.011925782 0.07502901 -0.06974285
-0.05580155 0.073084325 -0.029266803 -0.059268948 -0.054664478 0.00097996 -0.013534644 0.042133182
-0.011534572 -0.011773713 0.07305717 0.059630025 0.06651299 -0.016797466 0.06620157 0.062343083
0.065997355 0.0045689736 0.008240186 -0.07431761 -0.08828497 0.0425913 -0.00076567224 0.00945407
-0.030370425 -0.03895804 -0.07024529 -0.054328796 -0.05962645 -0.0014634543 -0.019960385 0.023589617
0.047176465 0.0068069333 0.02045119 0.07049899 -0.011987383 0.07870002 0.016485961 -0.043638866
-0.042522594 -0.021092756 0.021845764 0.05120452 -0.026833145 -0.052334443 -0.0836784 0.0732948
0.044107556 0.021339357 -0.06130798 0.08287515 0.009051196 0.02178742 0.047978282 0.05376665
-0.026203338 0.0012187989 0.06306472 0.0037158155 -0.04025117 0.028758869 0.033935815 0.08591426
-0.077774316 -0.027053718 0.013150633 0.07143083 0.032183185 -0.04005681 0.05624434 0.07144014
-0.0821243 0.08230959 -0.012755495 0.0059305253 -0.0034884627 0.05850449 -0.019197576 0.06897549
-0.06257281 0.026077852 0.00011075636 0.0065076808 0.035605107 -0.07330422 -0.046114154 0.085250385
-0.08363768 0.03591156 -0.036214188 -0.07204246 0.048300862 0.052001733 -0.033935044 0.026477277
00000000: 20ee 9e3c 86b1 ad3d 4d0b 98bd 4abc 4dbd
00000010: e00b 553d 11da 0d3c 39c1 af3d 9f35 263d
00000020: 7a74 943d 75a4 b13d dac7 9ebd 7ba6 0ebd
00000030: 4b05 7db9 6fad b83c 59f1 193d acc2 2ebb
00000040: 120d e03c 5f3c 993d 267e 0e3c 0f7c 90bd
00000050: 608e f6bb 8a29 8fbc a39c 96bd bad0 a3ba
00000060: 65a9 713d cde3 123d 95e6 9ebd 26a0 77bc
00000070: 43fe 793d bb0f 923d 3d10 50bc 57d9 883c
00000080: 3cef ffbc 3c2c 563d 1dae a0bc 55b5 9c3d
00000090: 8bc9 863d c826 fb3c 8e80 943d 6aaf 0b3d
000000a0: 4df1 94bc 6a00 1b3d e463 c93c 77f1 79bc
000000b0: 530f 713c a03c f53c f483 8a3d f211 abbd
000000c0: 83c9 13bd e265 113d e238 b03d 38f7 06bc
000000d0: 06d7 c0bc 2498 a1bd 979b 863d d8d1 00bc
000000e0: 3b74 723d 6724 b13d d7a9 d7bc 6b6d 9bbd
000000f0: 248c 38bb 48a7 f43c 9b32 e8bc 87c7 893d
00000100: 1aff 5dbd 72b2 b2bd 0225 b5ba bdee 6d3d
00000110: b8cd 94bd 96ba a2bd 9185 d93b dbba 0c3d
00000120: f114 b73c b7cd c0bc f360 27bd 1062 533d
00000130: 4572 6f3c 1303 c13a 8a34 8cbb 5689 c23c
00000140: d9e2 cd3c f4dd 2c3d 227d 453d fb8f 67bd
00000150: 1ba2 42bc 5e29 84bc 91a0 693d 6f05 843c
00000160: 9cfe 893d 888e 433d 8827 f83c f5e7 943d
00000170: bc8e cc3b 4012 b7bd 5464 913d ae86 87bc
00000180: 27bc acbd 7fed 843d 48a8 90bd ef07 83bc
00000190: e9fb 863c 39d7 bdbb bcbb a23d cc7a 543d
000001a0: 6b31 8b3d 5461 cb3b 4b83 a53d c87a 8cbd
000001b0: edbb c83c 0c6f b93a f1f5 95bd c937 afbd
000001c0: 0ccc 183d 34b9 153b a42d ac3d 95b5 ba3a
000001d0: 013a 3c3c 5d3d 08bd ca8e a1bd 9d0d 583d
000001e0: c257 a03d 7b22 76bd c330 723d 03c9 4abd
000001f0: e120 fbbc f796 8b3d a112 8b3d a84e 3cbd
00000200: 9011 b23c ba58 86bd f338 b4bb 1939 60bd
00000210: 5e72 27bd 61d4 b13d 2af9 8f3c 6f7a 90bc
00000220: 94c4 3abd c199 df3b c04d 0bbd 1689 01bc
00000230: ef56 7ebc f36c aebd ae4d b3bd 93c1 f4bc
00000240: ddb0 fcbc 1c59 abbd 7a01 0f3c af4b 9a3c
00000250: f85c 3bbc 8c4c 2dbd 4ca4 873b 606d 583d
00000260: f8db 9abd 84cf 043d b11f a83d aa4f 6a3d
00000270: 8eb1 eebc 5b64 433c cfa8 993d 57d5 8ebd
00000280: 2b90 64bd 3cad 953d efc0 efbc ffc3 72bd
00000290: dce7 5fbd 0072 803a 69c0 5dbc d893 2c3d
000002a0: 80fb 3cbc 88e6 40bc ff9e 953d 9d3e 743d
000002b0: f637 883d d79a 89bc b094 873d 765b 7f3d
000002c0: 9f29 873d 54b7 953b d801 073c d533 98bd
000002d0: c0ce b4bd 3774 2e3d 65b7 48ba 3ee5 1a3c
000002e0: 66cb f8bc 7792 1fbd c3dc 8fbd df87 5ebd
000002f0: dd3a 74bd 61d1 bfba f683 a3bc 033f c13c
00000300: 1c3c 413d b20c df3b 4189 a73c c661 903d
00000310: ba66 44bc 7a2d a13d 910d 873c abbe 32bd
00000320: 2c2c 2ebd b7ca acbc e3f5 b23c d5bb 513d
00000330: 2fd1 dbbc a45c 56bd 955f abbd 961b 963d
00000340: 20aa 343d e0cf ae3c 141e 7bbd 72ba a93d
00000350: 784b 143c 887b b23c e084 443d 6b3a 5c3d
00000360: 62a8 d6bc 1bc0 9f3a 1328 813d 0a85 733b
00000370: 69de 24bd b897 eb3c 4800 0b3d d1f3 af3d
00000380: 2448 9fbd c29f ddbc c175 573c 544a 923d
00000390: 84d2 033d 9c12 24bd 7760 663d 354f 923d
000003a0: c930 a8bd ee91 a83d 6cfc 50bc da54 c23b
000003b0: b19e 64bb 67a2 6f3d 3c44 9dbc 0643 8d3d
000003c0: 2c26 80bd 38a1 d53c de45 e838 623e d53b
000003d0: a9d6 113d 8620 96bd 32e2 3cbd c197 ae3d
000003e0: 3b4a abbd 0018 133d 5455 14bd ff8a 93bd
000003f0: 20d7 453d c5ff 543d 79ff 0abd e0e6 d83c

fc2.bias f4 [64]
0.04192273 0.028463453 0.0034562345 0.06524737 -0.008541383 -0.0381752 0.027439723 -0.050684523
-0.057756953 -0.060082994 0.09846895 0.104202665 0.06612255 0.008485726 0.06496233 -0.040939476
0.04627483 -0.037362423 -0.08189903 0.023704818 0.0687173 0.042194497 0.060521234 0.06215221
-0.0676183 0.07404758 0.06372958 -0.052491497 -0.039752085 -0.013440505 -0.009663212 -0.042984575
0.0029493899 0.0025308786 -0.008659056 -0.027634809 0.0560827 0.07544591 0.074508585 -0.023934705
-0.025215331 0.007596335 0.023373133 0.0044474136 -0.054386415 0.039469287 0.04132177 -0.06540722
0.003632107 0.037517667 -0.050072227 0.018427601 -0.028720127 -0.06889301 0.009202889 -0.0694616
0.07917789 -0.02707212 -0.048402876 0.08006727 0.07797847 0.015397724 -0.0046168296 0.066609815
00000000: 2bb7 2b3d 302c e93c fe81 623b 6aa0 853d
00000010: 28f1 0bbc 995d 1cbd 45c9 e03c 939a 4fbd
00000020: 8e92 6cbd 9619 76bd 17aa c93d 3568 d53d
00000030: 426b 873d b707 0b3c f80a 853d 27b0 27bd
00000040: ad8a 3d3d 5709 19bd aeba a7bd 9b30 c23c
00000050: a8bb 8c3d 23d4 2c3d 1de5 773d 5193 7e3d
00000060: 777b 8abd 42a6 973d a784 823d 5301 57bd
00000070: 15d3 22bd 9035 5cbc 7352 1ebc 9810 30bd
00000080: 8d4a 413b 19dd 253b b7de 0dbc 6562 e2bc
00000090: f9b6 653d 6383 9a3d f597 983d b712 c4bc
000000a0: 6290 cebc adea f83b 0379 bf3c 9cbb 913b
000000b0: 4ac4 5ebd 8caa 213d 0441 293d 38f4 85bd
000000c0: a508 6e3b 20ac 193d 8918 4dbd 7bf5 963c
000000d0: 7946 ebbc c717 8dbd b7c7 163c e241 8ebd
000000e0: 0528 a23d 5ac6 ddbc 1842 46bd 4ffa a33d
000000f0: 2db3 9f3d bc46 7c3c c648 97bb ba6a 883d

fc3.weight f4 [10, 64]
-0.016515125 0.08691316 -0.10146151 0.033604972 -0.057508647 -0.06689126 -0.044665832 0.072410166
0.09218043 0.04254509 0.083954595 -0.022754446 0.03311627 -0.017837737 0.09213095 -0.12156211
0.08843998 -0.017289974 0.058533844 -0.025057705 -0.004774588 -0.05722521 0.04906702 0.026041843
-0.06976153 0.107622705 0.06041169 -0.11677121 -0.072832346 0.0765875 -0.01739217 -0.080421776
0.11460366 0.05046386 0.040097088 0.008251028 -0.114978865 0.06302959 -0.009411944 0.049382493
0.08895215 0.008601302 0.06836184 -0.12477447 -0.05460945 0.060194883 -0.027308008 -0.12014769
-0.062103234 -0.0049750507 0.039233882 0.041074466 -0.05501464 -0.060493156 -0.04941575 -0.01013042
0.028705569 0.06525289 -0.03846194 0.1221946 0.019879442 0.1063502 -0.026880238 -0.052310236
0.093795106 0.10651626 0.0095841745 0.11959123 0.082238786 -0.11223528 -0.004694437 0.084102504
-0.03188981 -0.09208475 -0.0113339415 0.15898466 0.118951425 -0.15706728 0.009608242 0.011665132
-0.07076142 0.058996074 0.06700296 0.04155635 0.052805718 0.13731048 -0.12963732 0.12665598
0.100119606 -0.13340156 0.10855864 0.019391662 -0.0496362 0.08457648 -0.09916918 0.025596466
-0.06266891 0.03740195 0.048111446 0.10683873 0.13292374 -0.051710427 0.06847398 -0.07394667
-0.03724509 0.12270812 0.1199806 -0.12094176 0.045391195 0.10600936 0.036474526 -0.04056239
0.008794195 -0.1016324 0.07674039 0.032174386 0.06729506 -0.1035379 -0.07432819 0.06516211
0.04743123 -0.013632439 0.037573613 -0.11963129 -0.025180822 0.027082598 -0.07935024 0.10802273
-0.0050110994 -0.10159231 -0.0822657 -0.040346872 -0.025152387 -0.017341135 -0.06574058 -0.09261593
0.107557565 0.04007754 -0.11572167 -0.085507266 -0.046120968 0.05501419 0.0776791 -0.12383645
0.04006143 -0.060737867 -0.006413567 -0.049316052 0.013142264 -0.06275865 -0.023213765 0.01611442
-0.102259845 0.011108447 0.017406771 -0.058007665 -0.038886897 0.023687696 0.100355096 -0.04804112
0.07346771 0.105288886 -0.112542026 0.03455723 0.06912472 0.09412465 0.123594545 0.008627125
-0.030333556 0.023486705 -0.1224376 -0.08524624 -0.018005552 -0.11389103 -0.05485081 0.07759315
0.022231894 0.00076422223 0.011018933 0.07560993 -0.045209397 0.042093933 -0.060993314 -0.00770624
0.09673069 0.007723205 -0.03051307 -0.040994886 -0.0760858 -0.07575756 -0.121375464 0.07072254
0.05918227 -0.03590085 0.010940812 0.06586065 -0.014383094 0.07310436 -0.050767355 -0.035036013
0.01963581 0.10227609 -0.07421714 0.05850244 0.017150393 -0.028311055 -0.12178759 -0.07638424
0.09407701 -0.08679003 0.040079366 -0.03899226 -0.034903355 0.0834897 -0.061777033 0.08710249
-0.035850435 -0.08829745 -0.03631683 -0.04849518 0.08445556 0.035865035 -0.03696713 -0.10494689
0.010543348 0.05405545 -0.048651837 0.0010433693 0.12471067 -0.059377313 0.04637605 0.100640774
0.100363515 -0.08404833 -0.07673589 -0.1263323 -0.013375035 -0.09514199 -0.13448879 0.043079466
0.117527425 0.12720032 0.04605851 0.09327442 0.019739373 0.060587034 0.042747475 0.049584076
-0.006751021 0.05061971 -0.023147583 0.08507412 -0.024856161 -0.019359287 0.061802268 0.044435456
00000000: ba4a 87bc 87ff b13d 0dcb cfbd 5ea5 093d
00000010: 308e 6bbd 49fe 88bd 85f3 36bd c84b 943d
00000020: 18c9 bc3d c343 2e3d 63f0 ab3d 8867 babc
00000030: eda4 073d 7220 92bc 27af bc3d 8ef5 f8bd
00000040: 0520 b53d b4a3 8dbc 2fc1 6f3d d145 cdbc
00000050: 2674 9cbb fb64 6abd 80fa 483d b455 d53c
00000060: 22df 8ebd 4b69 dc3d 4072 773d bf25 efbd
00000070: 2029 95bd e8d9 9c3d 067a 8ebc 2cb4 a4bd
00000080: 53b5 ea3d 31b3 4e3d d83c 243d 522f 073c
00000090: 0a7a ebbd a815 813d 8e34 1abc 4c45 4a3d
000000a0: 8b2c b63d 7aec 0c3c 4b01 8c3d c289 ffbd
000000b0: 29ae 5fbd e98e 763d 0bb5 dfbc fe0f f6bd
000000c0: f65f 7ebd c005 a3bb b5b3 203d b33d 283d
000000d0: 0857 61bd acc7 77bd 2b68 4abd 10fa 25bc
000000e0: f127 eb3c 4fa3 853d 448a 1dbd 2a41 fa3d
000000f0: 36da a23c 22ce d93d f233 dcbc 4243 56bd
00000100: a617 c03d 3225 da3d f106 1d3c 3fec f43d
00000110: cf6c a83d 9cdb e5bd cbd3 99bb ef3d ac3d
00000120: e49e 02bd ee96 bcbd ffb1 39bc e0cc 223e
00000130: ce9c f33d 3fd6 20be e36b 1d3c 1c1f 3f3c
00000140: 5deb 90bd dea5 713d d938 893d fe36 2a3d
00000150: cf4a 583d 1e9b 0c3e a5bf 04be 1bb2 013e
00000160: 820b cd3d 6b9a 08be fe53 de3d 43db 9e3c
00000170: 544f 4bbd 6f36 ad3d 3619 cbbd aeaf d13c
00000180: 8f58 80bd ca32 193d 8210 453d 44ce da3d
00000190: 291d 083e 50ce 53bd 163c 8c3d 5a71 97bd
000001a0: 4f8e 18bd 654e fb3d 64b8 f53d 50b0 f7bd
000001b0: 1eec 393d 6f1b d93d 5066 153d c024 26bd
000001c0: 8715 103c a624 d0bd 112a 9d3d 4ac9 033d
000001d0: fed1 893d ae0b d4bd 6139 98bd b673 853d
000001e0: 4047 423d 985a 5fbc cae6 193d 4001 f5bd
000001f0: 0348 cebc 53dc dd3c 6182 a2bd 053b dd3d
00000200: 2634 a4bb a10f d0bd eb7a a8bd c342 25bd
00000210: 610c cebc ff0e 8ebc ffa2 86bd 6cad bdbd
00000220: 2447 dc3d 5928 243d 7cff ecbd 6f1e afbd
00000230: 57e9 3cbd 8f56 613d 3816 9f3d f79d fdbd
00000240: 7417 243d 45c8 78bd e628 d2bb a1ff 49bd
00000250: a752 573c 9b87 80bd cb2a bebc 6302 843c
00000260: 9c6d d1bd 3400 363c a598 8e3c 7299 6dbd
00000270: de47 1fbd b30c c23c f986 cd3d c4c6 44bd
00000280: 3d76 963d b3a1 d73d 6f7c e6bd e28b 0d3d
00000290: 4391 8d3d 6dc4 c03d 231f fd3d c958 0d3c
000002a0: 147e f8bc 3167 c03c 90c0 fabd 9595 aebd
000002b0: 6180 93bc b33f e9bd 3eab 60bd 28e9 9e3d
000002c0: a91f b63c 1656 483a c188 343c 61d9 9a3d
000002d0: 7d2d 39bd b06a 2c3d 20d4 79bd a084 fcbb
000002e0: bd1a c63d f012 fd3b 8cf6 f9bc 41ea 27bd
000002f0: dfd2 9bbd c826 9bbd b393 f8bd fbd6 903d
00000300: 1c69 723d c50c 13bd 1741 333c f3e1 863d
00000310: 12a7 6bbc bdb7 953d 6ef1 4fbd ec81 0fbd
00000320: 47db a03c 2076 d13d 28ff 97bd 41a0 6f3d
00000330: fb7e 8c3c 96ec e7bc c66b f9bd 576f 9cbd
00000340: 73ab c03d f9be b1bd 432a 243d 59b6 1fbd
00000350: d2f6 0ebd a6fc aa3d ea09 7dbd ca62 b23d
00000360: e8d7 12bd 4bd5 b4bd f5c0 14bd e2a2 46bd
00000370: 09f7 ac3d 37e7 123d d86a 17bd 65ee d6bd
00000380: 02be 2c3c 3f69 5d3d 2647 47bd aac1 883a
00000390: 4f68 ff3d a035 73bd d0f4 3d3d c01c ce3d
000003a0: 638b cd3d 8821 acbd b527 9dbd 415d 01be
000003b0: f622 5bbc ced9 c2bd 6eb7 09be 1874 303d
000003c0: 38b2 f03d cd40 023e d9a7 3c3d a906 bf3d
000003d0: 77b4 a13c 1c2a 783d fa17 2f3d ac18 4b3d
000003e0: ab37 ddbb 9d56 4f3d 00a0 bdbc 573b ae3d
000003f0: 269f cbbc 5e97 9ebc 6024 7d3d f401 363d

fc3.bias f4 [10]
0.03103008 -0.04256553 0.0014130375 0.07832408 0.070095524 0.04944695 0.09553443 0.086543284
0.089065626 0.09465372
00000000: cb32 fe3c 3159 2ebd ac35 b93a 6068 a03d
00000010: 3e8e 8f3d e388 4a3d 8ea7 c33d 9b3d b13d
00000020: 0a68 b63d cfd9 c13d
